model/MNIST/model.pth (torch, 130095 bytes, 16 tensors)

conv1.0.weight f4 [16, 1, 3, 3]
00000000: 3d1c 0f3e 1987 3fbd af91 33be c862 963d
00000010: a0dd ef3d cbe7 a1bd 5e5f e93d ceb0 963d
00000020: 0cec 92be fae4 d8bd 7004 bb3e e564 973d
00000030: 0a20 50be 05db 3abd 9a2b b4be 8dd7 b8be
00000040: 0ad5 a6be 5863 703c 18d6 3c3d 0350 bfbe
00000050: f9b0 84bd 0cd8 303e 0a77 05bd cba0 f1bc
00000060: c70a 993e 57c5 e13d fa60 923d 337b 5cbd
00000070: 0559 16be 4107 b5be 66e5 fa3b 480f 883e
00000080: 472d c9bc 1e6f 9fbc 9ead 433e dcfc 733e
00000090: 596d 1a3d d395 16be d035 9abe 463b b63e
000000a0: 4201 02be d880 b8be 4c08 1cbe 776c 643e
000000b0: 2545 58be baf5 adbc e255 20be 073c 31be
000000c0: d790 38be 6064 7cbd 24a4 043d e050 993e
000000d0: c0cc 2c3e 87a5 903e cf93 77bd 44e3 203e
000000e0: 5440 a0be 6569 9b3d 5068 3a3e 2c3f 843d
000000f0: 11c9 083e 5c86 7bbd 5418 d23d d8d4 61be
00000100: 5491 11be e56b 8c3d 7c1d 593d 29cd 9c3e
00000110: 2f4d 1d3e f8bb 363e 979d 55bd 8a44 6abe
00000120: 4de9 483e 0645 203d efa3 f9bb 7320 8e3d
00000130: f13a e83d c5e4 bcbc dc02 a7bc 3948 263e
00000140: 6303 aabe e9d8 973e 0f08 91bc 7150 58bd
00000150: c0a9 153e 9d30 45be a618 f33d 7301 913e
00000160: aad8 9abe ff08 4e3e 4054 a53e 6470 88be
00000170: f209 5fbe 1cd8 f3bd c29b a5be fca6 46bd
00000180: 499c 82be 0e16 4fbc d7ed 043e a118 cbbd
00000190: bfba cc3d e68d 4a3e b9e2 483e 23ff 383e
000001a0: 07bd ab3d 4b67 443d 8ebc 49be 5b5c 87be
000001b0: a786 48be 28b7 bbbe ae14 babe b55a 9cbc
000001c0: 115b 923e 4674 87be 9f63 903e 1ead 64bd
000001d0: fab6 253e fdcc 87be 7644 f43c 18b8 d03e
000001e0: d703 db3d b4e4 11bd a763 42be fd11 94be
000001f0: bba7 0ebe 8d75 bcbd e47d 223e 2fff 25bc
00000200: 3f02 b9bd a27e 8cbd c7d6 193e 0c34 2a3e
00000210: 3341 41be a43d eebd 47d2 053e 1b52 6bbe
00000220: 1c3f b83d af40 643e 1ca6 233e 26d4 873e
00000230: 6c33 94bc 2626 ea3c c2dd ba3d 0cc8 9fbd
0.13975616 -0.0467597 -0.17536043 0.0734306 0.117121935 -0.07905539 0.11395143 0.073579416
-0.28695714 -0.10590549 0.36526823 0.07392291 -0.20324722 -0.04561903 -0.35189515 -0.36101952
-0.3258441 0.014672123 0.046102613 -0.37365732 -0.06479067 0.17269915 -0.032584228 -0.029495617
0.29891035 0.11023968 0.07147403 -0.05382843 -0.14682396 -0.35357097 0.007656741 0.2657416
-0.024557723 -0.019462164 0.19109198 0.23826927 0.03770194 -0.14705591 -0.3011918 0.35592097
-0.12695792 -0.360358 -0.1523754 0.22307001 -0.21120127 -0.021235336 -0.15657762 -0.17308055
-0.18024002 -0.061619163 0.0323831 0.29944515 0.16874981 0.28251287 -0.060443696 0.15711695
-0.31299078 0.07588462 0.18203855 0.064573616 0.13357951 -0.061407432 0.102585465 -0.2205385
-0.14215595 0.06856517 0.053006634 0.30625275 0.15361474 0.17845142 -0.052152243 -0.22877708
0.19620247 0.039128326 -0.0076184194 0.06939783 0.11339367 -0.023058305 -0.020387106 0.16238488
-0.3320571 0.29657677 -0.017704038 -0.05281109 0.14615536 -0.19256826 0.11869936 0.28321418
-0.30243427 0.20120619 0.3229084 -0.26648247 -0.21781138 -0.11906454 -0.32345396 -0.048499092
-0.2550986 -0.012639536 0.12981354 -0.09916807 0.099965565 0.19780692 0.19617738 0.18066077
0.083856635 0.04795007 -0.19700834 -0.2643765 -0.19582616 -0.36663175 -0.36343902 -0.019086221
0.28585103 -0.26455897 0.28201005 -0.05582916 0.16183081 -0.2652358 0.029817801 0.40765452
0.10694092 -0.0356185 -0.18983327 -0.28919974 -0.13931172 -0.092021085 0.15868336 -0.010131641
-0.090336315 -0.06860091 0.15023337 0.16621417 -0.18872528 -0.11632851 0.13068496 -0.2298054
0.08996412 0.222903 0.15981334 0.26529044 -0.018090926 0.028582644 0.09124328 -0.07801828

conv1.0.bias f4 [16]
00000000: 3a37 db3d 1243 94be e44c 72be c06e d03e
00000010: 03bc 2ebd bcb2 86be 9014 cdbd 9379 93be
00000020: a7ba 383e f950 94be a282 a63d a516 b83d
00000030: 6bf8 2a3d 39ba 413e ea8f 0e3d 2aa1 8cbe
0.10703893 -0.2895742 -0.23662144 0.40709496 -0.04265977 -0.26308239 -0.100136876 -0.2880369
0.18039952 -0.28968027 0.08130385 0.08988694 0.041740816 0.18918695 0.034805216 -0.27466708

conv2.0.weight f4 [16, 16, 3, 3]
00000000: 148d 803d 7ee2 cb3d 7db1 84bd 7df6 93bd
00000010: ab31 15bd 1ac6 3d3b b941 8c3d 6c99 d73d
00000020: c529 b1bd 6993 5cbd 0e8e 8dbc b101 0dbd
00000030: d97f 08be af95 d6bc fdfb dc3d 950d c3bd
00000040: 0174 4abd d787 0f3e 0c3c 1abe 37c3 31bd
00000050: 6263 18bd 9c70 8bbc c3fc a03d 9780 abbc
00000060: b0f1 98bc 4522 6f3d 33ec 9d3d 5a8d 3a3b
00000070: 878f 023c d008 84bd 6faf a13d 0d1d 943d
00000080: ea1a d4ba faed 4f3d e77b 98bd b34c e3bc
00000090: 0564 dcbc 4e80 0ebd 9502 30bd 2297 cf3d
000000a0: 5edf cebd 070f 9cbd e442 ee3c 142c 3ebd
000000b0: 5267 13bd 4059 10bd 1700 0a3d 271d 9b3c
000000c0: 4107 1a3c 0308 a03c 7b7f 9a3d 1d07 43bd
000000d0: f8d7 a23d c368 bbbc 4c05 443d 5133 7a3d
000000e0: 4b86 133d d633 693d 10ca a23c dc13 dfbd
000000f0: c864 eb3d 7ee4 61bd f48d 95bb d577 d4bd
00000100: dc45 febd 7ce8 02be 263b abbc 7ded 94bd
00000110: ddb0 1bbd e046 35bb 04ff abbc b6cb 393d
00000120: d794 043d 847f d9bb 7656 92bd 785f 0dbd
00000130: 6c63 073d 572c 85bd fec6 863d b7d6 e33c
00000140: 2542 65bd 5556 663d b850 1e3c 5927 53bd
00000150: 9b43 a73d 9078 033d 6bf9 c03d 521d c63d
00000160: 1577 103e 3d59 4e3c 6655 26bc 25f6 58bc
00000170: 2a5d 07bd 9ede 853d 0978 78bc 1804 5b3d
00000180: 502c c23c e10a 8ebc 234a 373d 50f7 dd3c
00000190: a5bc fcbc 200b a03d 2d08 773c 6a1d 24bd
000001a0: 7b1e 91bc 52f0 4a3d f19d 3bbd 0a8b 8cbd
000001b0: eae2 3ebd 589c bcbd e588 80bc 3bbe 34bb
000001c0: be1b 313d 7af6 73bd 8227 f93d 8e55 60bc
000001d0: dcfe 80bd 5997 18bd fb39 0a3d ddfd 903d
000001e0: 2d30 213d 28e2 aa3d 4eab c43d ea75 5bbd
000001f0: 95ca d3bb a7bb 163e 316c 903c d820 c6bd
00000200: dae7 853d dcbf a1bd 229a 8fbd e395 f1bd
00000210: f058 773c caa2 c1bd cf2a 37bd 8600 a13d
00000220: 0fbc 21bd 8129 f6bd ecd3 fbbc 4f8a 81bd
00000230: aa35 70bd dd4c 633d 2bc9 62bd d63b 51bc
00000240: 8751 8a3d ee3d 5bbb f86b b4bd 9250 18bd
00000250: a18b e33c 9001 9d3c 1edd bd3c 3a03 853d
00000260: 4ff6 b8bb 7f79 1cbc b4e0 953c 195b 53bd
00000270: 5d29 3b3e e3d8 613d 0218 3dbd 80ae 6b3e
00000280: 3639 76bc 76a3 c8bd 5fa2 c03d eb06 4e3c
00000290: f506 e83b 637b 94bd 3c05 19be 491a 07be
000002a0: 10dc d5bd a532 f2bd f17c 9d3d f89f 8cbd
000002b0: ccd2 cebc 67d4 2bbd 16c6 c83a df0d 1f3d
000002c0: 488d 733d 8682 4f3b a23a 1cbd ed40 213d
000002d0: dbb6 b5bd 66b3 753c a1c3 38bd 5f0b f03d
000002e0: 0759 a33d b859 193d bae9 babd d3f7 45bd
000002f0: f9a9 a9bc 281f c63d c431 0cbb a783 82bd
00000300: 9532 0fbc 9170 0e3c b12b 123e cd36 a53d
00000310: 7dc6 0c3d f553 653c 4a74 283d 9ae9 123d
00000320: 3654 80bd 3ace a2bd 9103 91bc 9125 20bd
00000330: a7f3 8cbd 535b a0bd 778b 6e3d 2b10 e8bc
00000340: 9072 30bd c6d6 5ebd 434f af3d 2eda a03d
00000350: e7cc b5bc b06f 983d d78a 953b 8a50 70bb
00000360: 05f3 b2bb 4daa a0bc c040 17bd de04 b03c
00000370: 6de7 b73d d59e de3c ac26 19bd cc58 b13d
00000380: 9bd5 5bbc 82d0 8abd 00c4 3f3d 546f 723c
00000390: 87bf 2c3c 59a2 b33b f52d a1bc e6a9 8fbd
000003a0: b514 37bd b3a7 d53b 35c3 b5bc 0cb8 c8ba
000003b0: 65ff 6d3d 02e6 9cbd ea89 553d 7f6a 043e
000003c0: cfbb 133d e1c4 413e f78f 2abc d9bf 99bc
000003d0: b179 29bc 70eb a7bd 6142 593d a3e8 793d
000003e0: 6f95 14bd 6f50 dc3c 4dab 22bd a123 74bd
000003f0: f26f 233e 63ba a43d 960b 88bd 89bb d43c
0.062769085 0.09955309 -0.06479166 -0.07224748 -0.03642432 0.002895719 0.06848473 0.1052731
-0.08650545 -0.05385152 -0.017279651 -0.03442544 -0.1333002 -0.026194422 0.107902505 -0.09524075
-0.049427036 0.14016663 -0.15061969 -0.043399062 -0.037204154 -0.01702147 0.078607105 -0.02093534
-0.018669933 0.05838229 0.07711067 0.00284656 0.00796879 -0.06446993 0.078947894 0.072321035
-0.0016182337 0.05076406 -0.074455075 -0.027746534 -0.026903162 -0.03479033 -0.042971212 0.10136248
-0.10101198 -0.07620054 0.02908463 -0.046428755 -0.035987206 -0.035241365 0.033691492 0.0189348
0.0094011435 0.01953507 0.07543846 -0.047614206 0.07951349 -0.022877103 0.047856614 0.061084095
0.036016744 0.0569342 0.019871742 -0.1089246 0.11493832 -0.055149548 -0.0045640413 -0.10374419
-0.12415668 -0.12783998 -0.020902228 -0.0727186 -0.038010467 -0.0027660653 -0.020995624 0.04536029
0.032368507 -0.0066375155 -0.07145397 -0.034514874 0.0330538 -0.06502598 0.065809235 0.027812345
-0.055971283 0.056234676 0.0096628 -0.051551197 0.081671916 0.0320974 0.09422573 0.09673561
0.14107926 0.012594518 -0.0101521965 -0.013242279 -0.033047833 0.065366015 -0.015165337 0.0534707
0.02370277 -0.017339172 0.044748437 0.027095467 -0.030851671 0.07814622 0.015077633 -0.040067114
-0.01771473 0.049545594 -0.04580492 -0.06862457 -0.04660312 -0.09209508 -0.015690276 -0.0027579207
0.043239348 -0.05956123 0.12165739 -0.013692273 -0.062986106 -0.03725371 0.0337467 0.070796706
0.039352585 0.08343917 0.09602986 -0.05357925 -0.0064633586 0.14720021 0.017629715 -0.09674233
0.06538363 -0.078979224 -0.070118204 -0.11796167 0.015096888 -0.09454878 -0.04471856 0.07861428
-0.039485987 -0.12019635 -0.0307407 -0.063252084 -0.058644928 0.055493224 -0.05536763 -0.012770614
0.06753831 -0.003345366 -0.08809656 -0.037186213 0.027776541 0.019165784 0.023176726 0.06494756
-0.0056445966 -0.009550451 0.018295623 -0.05160055 0.18277498 0.05513848 -0.046165474 0.23015785
-0.015028289 -0.09796803 0.0940597 0.012574892 0.0070809075 -0.07250097 -0.14943403 -0.1319362
-0.10442364 -0.11826066 0.07689846 -0.06866449 -0.025247 -0.04195061 0.0015317823 0.038831588
0.05946091 0.0031663491 -0.038141854 0.03936856 -0.088727675 0.014996385 -0.04510844 0.11720919
0.07975965 0.037439078 -0.09126611 -0.048332047 -0.020710932 0.09673911 -0.0021391967 -0.06372767
-0.008740087 0.00869383 0.1427448 0.08067093 0.03436898 0.013997068 0.041126527 0.03586731
-0.06266062 -0.07949491 -0.017701896 -0.039098326 -0.068824105 -0.07829919 0.058238473 -0.028328022
-0.043078005 -0.054404043 0.0856004 0.078541145 -0.022192432 0.07443178 0.00456367 -0.0036669099
-0.005461099 -0.019612456 -0.036926985 0.021486696 0.08979688 0.027175346 -0.037390396 0.08659515
-0.013417627 -0.06778051 0.04681778 0.0147970505 0.010543711 0.005482 -0.019675234 -0.070148274
-0.044697482 0.0065202354 -0.022187809 -0.0015313639 0.05810489 -0.07661058 0.05213348 0.1293125
0.03606778 0.1892276 -0.0104103 -0.018768238 -0.010343955 -0.08199203 0.05304182 0.061012875
-0.036275323 0.026893822 -0.039714146 -0.05960429 0.15960672 0.08043363 -0.06642835 0.02596833

conv2.0.bias f4 [16]
00000000: a63a 843d 7391 90bc 873d 323d 3433 37bd
00000010: f067 f03c 75b0 9f3d a5bb 1fbd d95f 78bd
00000020: 55bc b6bc 1d33 a93d 4b45 3a3d 43dc c7bc
00000030: 9d9d b43d 6de2 40bd db8b 603d 3e76 0dbd
0.06456499 -0.01764748 0.04351571 -0.044726565 0.029346436 0.077973284 -0.03899731 -0.060638282
-0.0223066 0.08261702 0.04547624 -0.024397021 0.08819125 -0.047090936 0.054820877 -0.034536593

conv2.1.weight f4 [16]
00000000: 3bdf 703f 7a5a 8b3f 2088 783f 13b0 713f
00000010: e0a2 6b3f 751f 4f3f 138b 883f 8e00 853f
00000020: ab39 8b3f 3915 893f dc7a 843f cadd 803f
00000030: 1885 833f 68f3 7e3f be9b 873f 2ee2 8a3f
0.9409062 1.0886986 0.9708271 0.9440929 0.920454 0.80907375 1.0667442 1.0390794
1.0876974 1.0709602 1.0349994 1.0067685 1.0274992 0.9959016 1.0594404 1.0850275

conv2.1.bias f4 [16]
00000000: dff9 60be 28e0 1fbe 6414 dfbd e4b1 47be
00000010: ffa3 70bd 454d 77be 6386 41be 44d6 debd
00000020: 125d 47be 7f4a b1bd 9deb 11be c366 fabd
00000030: 2cc4 cebd 61ff 74bd 7e26 12be 4414 7abd
-0.21970318 -0.15612853 -0.10892561 -0.19501454 -0.05875015 -0.2415057 -0.1889892 -0.10880712
-0.19469097 -0.08656787 -0.14250036 -0.122266315 -0.100960106 -0.05981386 -0.14272496 -0.061054483

conv2.1.running_mean f4 [16]
00000000: 4a4d ee3d b75b a7bd 5026 4abe 8d38 5fbd
00000010: 30ba 12bf e270 6c3e 1d02 d1be ef1f 3fbe
00000020: 9958 bcbe 83bd bc3d 9498 64be db52 04be
00000030: 392b 3ebe 2f13 16be ff24 70be 10d8 debd
0.116358355 -0.0817179 -0.19741178 -0.05449729 -0.5731535 0.23089936 -0.40821925 -0.18664525
-0.36786345 0.09215834 -0.22323829 -0.12922232 -0.18571176 -0.14655755 -0.23451613 -0.108810544

conv2.1.running_var f4 [16]
00000000: 6df5 b93d 2c24 453d b128 9c3d a8fc b13d
00000010: b7fa 003e a8da 013e 6987 233d a1cc e03d
00000020: dc7f ac3d 0257 d13d b2ff af3d 98a9 fe3d
00000030: 4288 c53d a707 0a3d 9711 d93d 0ae5 533e
0.090800144 0.0481302 0.07624949 0.086907685 0.1259564 0.12681067 0.03992406 0.1097653
0.08422825 0.102216735 0.08593692 0.12434691 0.0964513 0.033698704 0.10599058 0.2069284

conv3.0.weight f4 [32, 16, 5, 5]
00000000: f8ad e5bc a6a7 ad3d 8ae9 a23d 2c0c 643c
00000010: 47da 1f3d 4b54 1fbd 83a9 ec3c f484 a23d
00000020: 3a21 933d c6ba 0ebc 3023 cebb 5da0 2c3d
00000030: 0e4c 9d3d f320 73bb 214b 8f3d 7a20 c73c
00000040: c839 c43c 875b 263c dc9b 5d3d 36c4 b33c
00000050: 518a f7bc ee74 783b 55a1 89bb 6856 093d
00000060: 1b31 3a3d 107e 833c 9401 05be abcf d5bc
00000070: b351 c1bd 659d 6c3d d963 b93d 1598 c33c
00000080: 4293 dcbc 56c3 6c3d 9c85 8e3c 334a 64bc
00000090: 88ba 103d 057c 3a3d 5f8b bbbb d5e2 eabd
000000a0: c0e0 a7ba a7b8 bcbb 1896 e13c ec26 373d
000000b0: 3a16 91bd 6185 aebb a6b0 b3bc 5bf2 b4bc
000000c0: 2e37 8abb 7634 e8bd 8157 1b3d e772 efbb
000000d0: a6e2 48bd 880e 073d 5394 91bb 0866 bd3c
000000e0: 5623 8c3b 6763 93bb 50b2 6d3c 1496 793b
000000f0: 0e5b 113c 4007 3abd 8f27 073d fa99 9fbd
00000100: 3432 68bd 5223 0fbd 4556 073d 2914 55bd
00000110: dd55 48bc c6b6 bfbd 2393 a7bc b503 75bc
00000120: d3d3 0a3d 2b2d 3dbd d26c d43c e2f5 5ebd
00000130: ddeb 0fbc 1174 a23c 87d0 3f3d 5b1d 94bd
00000140: 1b70 dabd bd95 9b3d 5967 82bc 9ddc 6cbd
00000150: c2c3 373d ba7a 82bd 8e3c 833d 8602 9f3c
00000160: 0b3b 22bd f85f f63d 0a81 e9bc 514f 663d
00000170: 4be1 be3b bf53 e5bc 7655 883d ba1f 19bd
00000180: a932 e73c 286e 073c 6bb6 b43c 9c3f 2b3d
00000190: 0c2b 1f3a b91c 35bd 3c01 e6bb 606c 6e3b
000001a0: 27c0 34bd 5af4 173a 4bc5 1b3d e9c6 8ebc
000001b0: 4a24 db3c 603f 313d 6373 f3bc ccae c5bc
000001c0: 3a67 ddbb d071 dbbb dfc6 25bd da5f bf3c
000001d0: 18f1 993b 90d1 d2bc 7197 20bd f451 0e3d
000001e0: 5594 383c bbc8 bd3c e55a d6ba ea95 c5bc
000001f0: a224 d43c 5e7f c4bb a167 82bd 6ac5 f2bc
00000200: 27aa 6e3b 3463 7a3c 2275 8ebd 4d12 11bc
00000210: a9ae 54bd 8f29 6dbc 0efa 9fbc 767f 9abb
00000220: 8015 843b 163d 31bd 03f6 02bd d028 913c
00000230: d026 c0bc 2067 20bd f1ea b43c db10 7b3c
00000240: 4576 da3d bef6 cabb d3bf 023c 09e5 2c3c
00000250: 937a 98bc 1494 653d 4cc8 5cbd 4609 a13b
00000260: 0b16 a53b 69d0 56bd d882 553c 27f0 03bd
00000270: b129 14bd 628b 253c ed5b a0bc 1e0f cc3c
00000280: e9d2 06bd 4518 7f3d 7ee1 e0bc 9295 90bc
00000290: f031 9f3d 250a ee3c 4fa9 07bc d9ae 1cbc
000002a0: f78d 55bb 8c91 8d3d 7455 d43d e14f fd3c
000002b0: 6240 49bd 62d7 413d 1384 833d 1383 df3c
000002c0: 0353 893d 3fe3 6bbb 8be0 f7bc 7fe9 3cbd
000002d0: 89e5 e93d b00e 29bd 3246 1c3d fca2 eb3c
000002e0: 08aa c9bd c6cf 4a3d b0a3 093d c69d f53d
000002f0: 2273 543d e639 8abc 3113 93bd 8a84 04be
00000300: 04c1 ab3c 2487 543c f377 923d e305 93bd
00000310: 9795 90bd 4df5 48bd 27fb 05bd 1bd9 d7bb
00000320: 143c cd3c ce81 223d 013f 92bd a2cb 3fbc
00000330: 482c 6d3d da40 d53d 4410 843d 8445 0a3d
00000340: 662b 403d 58b1 ed3d 060c 993c d6d2 02bc
00000350: 43ed 31bc 16c5 d23d cf70 e13d 7ef6 64bd
00000360: df1d 89bd 8a87 cc3c 5f47 9d3d b38d 083d
00000370: 0319 3ebd a75f 6bbd b634 20bd 00db 5bbb
00000380: dedb 3439 121e cabd 56eb 8c3c 7658 43bd
00000390: 5ed3 8a3d 83f9 163e 0f4b 703d 3c80 0b3d
000003a0: 483e 00bd d99a b5bd 5751 713c 8d4a 39bd
000003b0: a8c8 423d b4d2 813d 91b1 593d e43d d13b
000003c0: 228e b2bd afec cd3c 73a2 fbbc a9cb 92bc
000003d0: a63d 04bb b111 55bc f64b 013d 5ff0 34bb
000003e0: ffff c7bc d4a5 a43b 2ec6 d9bd f522 593d
000003f0: 20a8 1b3d ccbc 493d 22c8 043c 4d83 94bd
-0.028037056 0.08479242 0.079547 0.013918918 0.039026525 -0.038898747 0.028889423 0.07935515
0.07184072 -0.008711522 -0.006290816 0.04214512 0.07680522 -0.0037098497 0.069967516 0.024307478
0.023953333 0.010153658 0.054103717 0.021944147 -0.030217322 0.0037911492 -0.0042001405 0.03352967
0.045456987 0.016051322 -0.12988883 -0.0261 -0.09439411 0.05776729 0.090522476 0.02387623
-0.026925687 0.057803474 0.017397694 -0.013933706 0.03533414 0.04552843 -0.0057234014 -0.11469046
-0.001280807 -0.005759317 0.02753739 0.044714853 -0.070843175 -0.0053259586 -0.021934818 -0.02208822
-0.0042180037 -0.11338131 0.037925247 -0.0073073986 -0.049044274 0.032972842 -0.0044427305 0.023119941
0.0042766733 -0.0044979337 0.014507845 0.0038083838 0.008871807 -0.04541707 0.03299671 -0.077930406
-0.056688502 -0.034945793 0.033041257 -0.05202118 -0.012227503 -0.09361033 -0.020455902 -0.014954497
0.033893418 -0.046185654 0.025930796 -0.05443371 -0.0087842615 0.019830735 0.046829727 -0.072321616
-0.10665914 0.0759692 -0.01591842 -0.05782758 0.044864424 -0.063710645 0.06408034 0.019410383
-0.03960709 0.12030023 -0.028503913 0.056227986 0.005825197 -0.027994035 0.066569254 -0.037383772
0.028222399 0.008266009 0.02205964 0.04180871 0.0006071783 -0.044216845 -0.00701919 0.0036380515
-0.044128563 0.0005796604 0.03802995 -0.017428832 0.026750702 0.04327333 -0.029718107 -0.024131201
-0.0067566903 -0.006696917 -0.04047286 0.023361135 0.00469793 -0.025734693 -0.039206926 0.034746125
0.011265834 0.023167005 -0.0016353993 -0.024119336 0.025896374 -0.0059966287 -0.06367422 -0.02963515
0.0036417337 0.015282441 -0.06955935 -0.008854461 -0.05192438 -0.01447524 -0.019528415 -0.0047149016
0.0040308833 -0.043271147 -0.031972896 0.017719656 -0.023456007 -0.039160848 0.022084685 0.015323843
0.106670894 -0.0061939647 0.007980305 0.010552653 -0.018613135 0.05604942 -0.053901955 0.0049144356
0.005038028 -0.05244485 0.013031684 -0.03221145 -0.036172573 0.010104032 -0.019575084 0.024909552
-0.032915983 0.062279005 -0.027451273 -0.017649446 0.07773197 0.029057572 -0.008280112 -0.009563171
-0.0032585838 0.069125265 0.103678614 0.030921878 -0.049133666 0.047324546 0.064216755 0.02728418
0.06705286 -0.0035993604 -0.030258438 -0.046121117 0.114207335 -0.041273773 0.03815288 0.02876424
-0.09846884 0.049514554 0.03360337 0.119929835 0.05186761 -0.016873311 -0.07181395 -0.12941185
0.02096606 0.012971673 0.07151785 -0.07178857 -0.07059782 -0.049062062 -0.03271022 -0.0065871603
0.025053062 0.039674573 -0.07140923 -0.011706265 0.057903558 0.1041276 0.06448415 0.0337577
0.046916388 0.11606091 0.018682491 -0.0079848375 -0.01085979 0.102914974 0.11007845 -0.055899136
-0.066951506 0.024966974 0.076796286 0.03333826 -0.04641057 -0.057464268 -0.03911277 -0.0033547282
0.00017248045 -0.09869017 0.01720206 -0.047691785 0.06778596 0.14743619 0.05866533 0.03405784
-0.031309396 -0.088674255 0.014728866 -0.045237113 0.047554642 0.063390166 0.053147856 0.0063855518
-0.08718516 0.025137274 -0.03071711 -0.017919378 -0.0020178347 -0.013004706 0.031566583 -0.0027609093
-0.02441406 0.005024651 -0.10633503 0.053011853 0.038002133 0.049252316 0.008104356 -0.07251606

conv3.0.bias f4 [32]
00000000: d1f4 06bd 9f65 44bc 5140 10bd ed34 203d
00000010: 641c 17bd 9fbe adbc 390b e7bb 1376 073d
00000020: c894 293d b5b4 b0bb 9385 cdbc baa0 003d
00000030: af63 4b3c 1aa2 d03c 790e 133d 86ee fcbb
00000040: 5d21 10ba 94b2 103d 1892 93bb 7118 efbc
00000050: 5916 a03c 30ed 67bc d686 2e3d 59d4 b7bc
00000060: 165a c9bc 7374 bcbc 1738 8bbc e146 f93c
00000070: 9fc1 21bc f338 c8bc 703c 9dbc ae78 1fbd
-0.03294832 -0.011987119 -0.035217587 0.039112974 -0.03689231 -0.02120906 -0.0070508984 0.03307159
0.041401654 -0.0053926357 -0.025088107 0.03140328 0.012413903 0.025467921 0.035902474 -0.007718864
-0.00054981356 0.035326555 -0.0045034997 -0.02918646 0.019541906 -0.014155671 0.04260906 -0.022440122
-0.02457909 -0.023004746 -0.01699452 0.030429306 -0.009872823 -0.024441218 -0.019193858 -0.03893345

conv3.1.weight f4 [32]
00000000: d2bc a83f fafa a33f ac23 9c3f 81c7 a13f
00000010: a2a7 a33f 9d60 a23f 1c26 a23f feab a03f
00000020: 1167 a63f 7543 a53f e4f0 a33f bf81 ac3f
00000030: 43c4 a53f 468a a33f 35f3 a93f 8f76 ac3f
00000040: 0d8b a53f daf6 a93f e5cb a33f b42d a63f
00000050: 3374 a83f 4a64 af3f c19a a73f 8de8 9d3f
00000060: 810d a83f 128c 9c3f 4754 9f3f fcef a83f
00000070: ea94 a53f ade7 a03f f982 a03f c093 9e3f
1.3182623 1.2810967 1.2198386 1.2639009 1.2785532 1.2685734 1.266788 1.2552488
1.3000203 1.2911211 1.2807889 1.3477095 1.2950519 1.2776573 1.3277346 1.3473681
1.293306 1.3278458 1.2796599 1.2982697 1.3160461 1.3702481 1.3094102 1.2336594
1.3129121 1.2230246 1.2447594 1.3198237 1.293607 1.2570702 1.253997 1.238884

conv3.1.bias f4 [32]
00000000: 2d9d 4fbd 8c47 17bd 45e9 97bd 5ae0 60bd
00000010: 4637 00bd a7be abbd 3878 2bbd ed61 26bd
00000020: 71cf ef3c f97a fa3b 5ef5 97bd 2c63 4dbd
00000030: 3cbd 6ebc a128 9dbd b8c1 9fbd 2df9 eabd
00000040: fc67 4fbd fe63 13be df0a 09be 4680 07bd
00000050: 20f8 7ebd efae 89bd b7a5 003c f1ad b8bd
00000060: eabb e7bd 9628 96bc 353f 6cbd ee28 d2bc
00000070: 3bd9 c4bc 370a a9bd 7da3 6abd 45b6 09be
-0.050687004 -0.036933467 -0.074175395 -0.05490146 -0.031302713 -0.083859734 -0.041862696 -0.040620733
0.02927372 0.007644054 -0.07419847 -0.050143406 -0.014571484 -0.07673765 -0.07800621 -0.11473308
-0.050636277 -0.14393613 -0.13383053 -0.033081315 -0.06224835 -0.06722819 0.0078520095 -0.09017552
-0.11315139 -0.0183299 -0.057677466 -0.025654282 -0.024029365 -0.082539015 -0.05728482 -0.13448437

conv3.1.running_mean f4 [32]
00000000: f4ec 00be 664f a43e 8066 2fbe 2ce2 28be
00000010: df7d 023e 3570 e23e 045b a73e 3417 013f
00000020: 084d 633f 5fe9 853d f955 013d 5599 333f
00000030: 0db2 b23e 4ffe 6fbe 5348 433d 3f17 dd3d
00000040: e077 a0be 089b 6bbd 4dc7 90be 060d ee3d
00000050: 6fca c1be fde9 043e b393 0c3c 1f90 a5be
00000060: 2367 3ebe b5ac 8ebd 137f 42be 73bf 203f
00000070: b6b4 43be 7224 1cbe 461d d0bd 1894 77bd
-0.1259039 0.32091826 -0.17128944 -0.16492528 0.12743329 0.44226232 0.32686627 0.5042603
0.88789415 0.06538653 0.03157613 0.7015584 0.34901467 -0.23436855 0.047676396 0.107954495
-0.31341457 -0.057520896 -0.28277054 0.11623578 -0.37849757 0.12979884 0.008580136 -0.32336518
-0.18594031 -0.06966535 -0.18993787 0.6279213 -0.19111905 -0.15248278 -0.101618335 -0.060443968

conv3.1.running_var f4 [32]
00000000: c14a 043f 2c72 2e3f 12c6 253f d5ac eb3e
00000010: 29ef 1b3f 655e 0a3f bb6e f43e 5feb 133f
00000020: 744f 173f 8d86 6f3f 6049 1b3f 60c5 283f
00000030: ae26 2b3f 2a26 343f b040 233f 044c 1b3f
00000040: ee09 0a3f 9d22 2d3f 32a1 463f 16f4 323f
00000050: add9 2d3f 545a 203f ee67 4c3f d24b 353f
00000060: dce7 1f3f 69f0 143f 5395 213f 72e4 4b3f
00000070: d936 ec3e 97da 253f b856 253f a575 323f
0.51676565 0.6814296 0.64755356 0.46030298 0.60911804 0.54050285 0.4774073 0.5778102
0.5910561 0.93564683 0.60658836 0.6592617 0.66855896 0.70370734 0.6377058 0.60662866
0.539214 0.6763094 0.77589715 0.69903696 0.6791027 0.6263783 0.79846084 0.7081882
0.62463164 0.58179337 0.63118476 0.79645455 0.46135595 0.64786667 0.6458545 0.6971076

out.1.weight f4 [10, 1568]
00000000: 0582 86bd eaf1 a2bc f5d4 45bb 3a9b 52ba
00000010: 9a64 72bc 60ce 44bb 49b7 423d d836 46bc
00000020: 0b81 86bc 444b d2bc 40d3 e8bc 12ff 7f3d
00000030: bc8e 543c e018 e93c ca7d 2c3d 546c b23c
00000040: 78de ccbc d9c9 a0bc 0d25 32bd 68e8 233d
00000050: 0907 743d a253 7e3d 9c36 683d 07ec 69bc
00000060: cb90 e3bc ccf8 f43b 3973 843d cc04 923d
00000070: c365 173d f778 693d 54cb c1ba 0c2d f93c
00000080: 4cee 5c3c 4f81 f5bc b04f 4d3c 5400 713d
00000090: bf24 1f3d 106c 933d d634 13be f5dd 43be
000000a0: 6821 c9bd 848e 1ebc 598c 84bb a1c1 3cbd
000000b0: 3b93 9fbd 0f75 70be 7cfe 3fbe 8cfd 85bd
000000c0: 0c54 cebb e3f3 e6bc 613f 02bd 1ecf 7bbd
000000d0: 4c67 f33b af3e e53a 553f 0eba f094 4abc
000000e0: b716 6f3b 1187 01bd 01d9 d0bc aeed 82bd
000000f0: 1c8e 703d 2af7 0c3e b879 2d3d 57b8 0b3d
00000100: e18f 55bc dc1c 81bc 58e7 2a3c 0b16 913d
00000110: 9fcc f33d f294 c03c f6c4 3a3d 80a5 8e3c
00000120: 5526 08bc f43c a7bd fe61 eb3c e6ae 863d
00000130: 807a 5fbd 0839 1f3d 62c0 e3bb 5137 17bd
00000140: 599a eebb 2636 07bd 0b89 82bd a836 0fbd
00000150: 3ac8 0e3c 7d39 123d 15b3 5f3b e647 49bd
00000160: 4526 2bbd 448c 8a3c 9705 e73c 75b5 2b3d
00000170: 1510 093d 4688 6d3d e1ed d8bc 8310 45bd
00000180: 46bf 1b3d 9fbc 1a3d 4742 2e3b b7fb 8bbc
00000190: 36a5 52bd d0eb 52bc cdc1 a2bc 8fd5 813c
000001a0: 3447 903c 0ba2 20bd 0262 64bc 96e7 20bd
000001b0: 1d04 fdbc 7bac ddbc 568f 223c 09c7 843d
000001c0: 99c1 c9bc 7035 a0bd fbbb 2a3a 184f c23b
000001d0: dbea 6c3c 1a28 82bd 8b04 be3b 0532 03bd
000001e0: 78b0 09bc 37fc c63c 617c 503d 3fcd fbbc
000001f0: a224 d8bd acb1 81bd 1472 603b 266b 973c
00000200: 16d2 8abc b6fc 5fbc 1858 1a3c 20ed b2bc
00000210: e7fd f2bd 86c5 80bc d412 53bc 04a4 2ebd
00000220: d821 acbd d31f 91bc ded2 88bb db70 36bd
00000230: 9bfe 003d 185c b9bb 549e 353c b6bf 62bb
00000240: 0d96 8dbc 8803 b2bd c512 66bc d96e 993c
00000250: dc5d 96bc fa35 ccbb d83d 79bc c3ee 333c
00000260: 3553 1bbb f6a5 413d 6dee d8bc 966f c5bb
00000270: 0338 153b 0431 1abc a0c3 f63b e56f 963c
00000280: 0a4c 80ba 6f7d fbbc 4094 c6bc 2cb5 a83d
00000290: d5c3 27bd 465c b8bd d394 283d cb48 623d
000002a0: 478b 983b ddd5 683d 81b4 283c cb75 81bc
000002b0: 366d 913c 8890 183d 6512 493d f248 6c3d
000002c0: c196 87b9 0ca9 223d 9a1d 853d 2bfa b53b
000002d0: 09a8 36bc 70df 583d a1b8 81bc bb40 b93c
000002e0: 585b 943d 5b11 e03c b27d 9bbd dcec 08bd
000002f0: 4144 e73b ac52 733c 4b99 fa3c 9ba2 673c
00000300: bba3 34bc 8beb cebd 9bf3 58bd 804a a33c
00000310: 505b 153d 8290 08bd 309e a9bc c8b1 16bc
00000320: 147a 1fba b1e3 02bd 9af4 c53c 0fec 67bc
00000330: 0ada bcbc 7de9 71bd cdd4 c2bd 2d03 77bc
00000340: b471 d53c cfb2 6c3c f03d 353c 9ec4 563c
00000350: 13f0 2cbc 192e e6bc 068d 713d 2de5 0d3d
00000360: d560 4e3c 4bbf 743a c1d5 833d 3b3f a73c
00000370: e66e 983d 9058 cc3c 7c5f 623d c1c6 143d
00000380: dd3e 9c3d ef00 483d 1ca3 0c3d 6280 9e3d
00000390: 01a7 7abd 8a1a 65bd e48f 57bb b8c6 7f3c
000003a0: f460 2e3d e6f6 353c 454e 8f3d cd1b e9bd
000003b0: 0416 e5bd d0af 00bd 818f 38bc 8e3b 02bd
000003c0: 11c8 64bd a46e 2ebc ab0d a0bd d070 b6bd
000003d0: 5026 413c 5540 9cbc b562 0abc ef5f c93b
000003e0: 3b4f 0bbd 3900 3cbc bd73 573c eaaf a93c
000003f0: 1e9a a7bc b4de 94bb 3207 2dbd 1c32 8ebc
-0.06567768 -0.019890744 -0.0030186747 -0.0008033995 -0.014794493 -0.0030030236 0.047538076 -0.012098037
-0.016418954 -0.025670655 -0.028421044 0.062499113 0.012973484 0.028454244 0.04211215 0.02178017
-0.025008425 -0.019627498 -0.043492366 0.04001656 0.05957702 0.062091477 0.056692705 -0.014277465
-0.027779004 0.007475948 0.064672895 0.07129821 0.036962282 0.057000127 -0.0014785328 0.030416988
0.013484549 -0.029968886 0.012531206 0.058838204 0.038853403 0.07198346 -0.14375624 -0.19127639
-0.09820825 -0.009677533 -0.004045051 -0.046083096 -0.07791754 -0.23482154 -0.18749422 -0.06542501
-0.0062966403 -0.028192466 -0.031798724 -0.06147682 0.0074280854 0.0017489995 -0.00054263073 -0.012364611
0.0036482045 -0.03162295 -0.0254941 -0.0639299 0.058729276 0.1376616 0.04235241 0.034111347
-0.013034792 -0.015760832 0.010431133 0.070842825 0.11904263 0.023508523 0.045597993 0.0174129
-0.00830992 -0.08165923 0.02873325 0.06576328 -0.054560184 0.03887275 -0.006950424 -0.03691799
-0.0072815833 -0.033010624 -0.06373795 -0.034964234 0.00871473 0.035699356 0.003413384 -0.049140833
-0.041784544 0.016912587 0.028200908 0.041921098 0.033462603 0.05799129 -0.026480617 -0.04811145
0.03802421 0.03777754 0.0026589797 -0.0170878 -0.05142709 -0.012873605 -0.019867802 0.015848903
0.017612077 -0.039217036 -0.0139393825 -0.039283358 -0.03088575 -0.027059784 0.009921869 0.064832754
-0.024628447 -0.078226924 0.00065129966 0.005929839 0.014460291 -0.06355305 0.0057988814 -0.032030124
-0.00840389 0.024290187 0.050899867 -0.030737517 -0.10553862 -0.06332716 0.0034247683 0.01848371
-0.01694588 -0.013671091 0.009420417 -0.021841586 -0.11864834 -0.015719187 -0.012882907 -0.042636886
-0.08404893 -0.01771537 -0.004175528 -0.04454122 0.03149281 -0.0056567304 0.011085112 -0.0034599132
-0.017283464 -0.0869208 -0.014042561 0.018729614 -0.018355303 -0.0062320204 -0.015212499 0.010982218
-0.0023700718 0.047277413 -0.026480878 -0.006025265 0.0022768981 -0.0094111 0.0075306445 0.018363902
-0.0009788286 -0.03069946 -0.024240613 0.08237681 -0.040958244 -0.09001975 0.041157555 0.055245202
0.004655275 0.05684458 0.010296942 -0.015803238 0.017752271 0.03724721 0.049089808 0.057686754
-0.00025861527 0.039711997 0.06499787 0.005553504 -0.011148461 0.05294746 -0.015835108 0.022613874
0.07243985 0.027352026 -0.07592334 -0.03342901 0.007057697 0.0148512535 0.030590674 0.014137889
-0.0110253645 -0.1010352 -0.052966695 0.019932985 0.036464036 -0.03334094 -0.020705312 -0.00919766
-0.000608356 -0.031955425 0.024164487 -0.014155402 -0.023053188 -0.059060562 -0.09513245 -0.015076441
0.026055194 0.014446928 0.01106213 0.013108401 -0.010555285 -0.028098153 0.05897238 0.034642387
0.012596329 0.0009336366 0.06437255 0.020415893 0.07443027 0.024944574 0.055266842 0.03632236
0.07629178 0.048829015 0.03433524 0.07739331 -0.061194424 -0.055933513 -0.0032892162 0.015611343
0.04257293 0.011106228 0.069973506 -0.11382256 -0.1118584 -0.031417668 -0.011264683 -0.031795077
-0.05585486 -0.010646496 -0.07815107 -0.08908236 0.01178892 -0.019073645 -0.008446385 0.0061454694
-0.034011107 -0.011474662 0.013150153 0.020713765 -0.020459231 -0.00454315 -0.04224319 -0.017357878

out.1.bias f4 [10]
00000000: 7433 073c dd74 d13c b358 b83c 3e2a 1abd
00000010: 3048 03bd 8395 713c dc45 42bc fa54 973b
00000020: cc1a 64bc 524a ef3b
0.0082520135 0.02556842 0.022503233 -0.03763794 -0.032051265 0.014745119 -0.011857476 0.0046182843
-0.0139224045 0.007302561
