model/MNIST/model.pth (torch, 130095 bytes, 16 tensors)

conv1.0.weight f4 [16, 1, 3, 3]
00000000: 824a e13d 79d3 5bbd 0136 b2bd a5a4 c1bd
00000010: e5fe aabe 7367 1dbe 4dee 643e bcfb 703e
00000020: bf04 663e 0e42 003e 3c15 92bd c127 43be
00000030: 1950 6e3e 699d cf3d 09b8 6bbe 7a72 ab3e
00000040: fd3f fcbd 4c15 17be 1edc 91bd 9033 92be
00000050: 8c56 82bc e1bb 7dbe 93f1 9f3e 0192 6b3d
00000060: b664 5e3d 71d6 473e 5095 7c3e f5da b5be
00000070: cd4b ae3d b31a 073e edee babe 00dd 6f3e
00000080: 1ae4 f23d 20b8 0c3e 09e5 213e a17b 2c3e
00000090: b381 783e 5c51 913e 62f2 5abd f8d0 67be
000000a0: 25ca 023e 13d3 643b ed04 59be c004 503d
000000b0: 7c50 8d3d 75d6 f13d 7025 603e 9efb 00be
000000c0: 5248 e7bd 6409 0bbe 5f22 133e 8248 3d3e
000000d0: c8d1 7a3e c756 54be 999e d5bd aff0 36bd
000000e0: 9324 04be b718 74be cf21 0bbd 4cdb 2e3e
000000f0: cb81 f03d b7cf a43e a681 a1be 9ec3 5c3e
00000100: 088b 1cbd 9700 4f3d 59ae 613d 1abe 05bd
00000110: 075d 933e c755 5c3e bb06 fb3d c3d2 6bbe
00000120: 895d 06be 4bdf 8d3e 8a44 85be 116d 30be
00000130: d185 333e dd6d 15bd 8a9c 9c3e 8224 213e
00000140: ae93 483d 0a92 2a3e c3fa 7abe 6728 45bd
00000150: 51dd 583e b219 a23e af9e 823e 9513 a6bd
00000160: 8ad6 98be a877 b8bc c8ff 93bd 9fc5 113e
00000170: ca72 363e eb3e 963e e6f5 213d 1ac1 61be
00000180: 13df 623e d337 103e 72a4 a6be 22c9 323e
00000190: 5550 9dbe c8c6 ea3d a449 e93d 9065 11bd
000001a0: 1720 87be 4ff7 563e c6bc bf3d 6aa4 a7be
000001b0: 72d3 6a3e 17c5 debd 425a 6f3e 5f9c 06be
000001c0: 029c bebe 8a5b 463d a146 3a3e a2b3 41be
000001d0: 3366 9d3e 619a 993e ec8c 8f3e 604c b8be
000001e0: 197c 87be 30e9 9abe 5241 c9bd 1e0b aebd
000001f0: 4367 1dbe 27ca 0d3e 586a 70bd c937 2e3e
00000200: f66f c2be 4483 70bd 01f4 c0be a315 123e
00000210: 85bd d7be c39d 7a3e f8e5 b5bd 174e 2bbe
00000220: 44e6 89ba 6678 80be b1fd 53be f7e6 ca3d
00000230: 9632 953e 2bb1 10bd 0848 403e d4b9 8f3e
0.11000539 -0.053668473 -0.08701707 -0.094552316 -0.33397594 -0.15371494 0.2235653 0.23533529
0.22462748 0.12525198 -0.071329564 -0.19058134 0.23272742 0.101374455 -0.23019423 0.33485776
-0.12316892 -0.14754218 -0.07122062 -0.28554964 -0.01591041 -0.24778701 0.31238994 0.057512287
0.054295264 0.19515397 0.24666333 -0.35518613 0.085105516 0.13193779 -0.3651041 0.23424149
0.11859913 0.13742113 0.15810026 0.16844036 0.24268226 0.28382385 -0.05345381 -0.22638309
0.12772425 0.003491585 -0.21193285 0.05078578 0.06900117 0.118084826 0.21889281 -0.12595984
-0.11293091 -0.13577801 0.1436858 0.18484691 0.24494088 -0.20736228 -0.10430641 -0.044663128
-0.12904577 -0.23837553 -0.03396779 0.17075843 0.11743506 0.32189724 -0.31544226 0.21558997
-0.038218528 0.050537672 0.05509791 -0.032651998 0.28781912 0.21517096 0.12257143 -0.23029618
-0.13121618 0.27709422 -0.26028854 -0.17229106 0.17531516 -0.036481727 0.3058818 0.15736583
0.048968963 0.16657272 -0.2450972 -0.048134234 0.21178176 0.3166023 0.2551169 -0.08109204
-0.2985118 -0.022517994 -0.07226521 0.14235543 0.17817226 0.29344878 0.039541148 -0.22046319
0.22155409 0.14083795 -0.32547337 0.17459539 -0.3072535 0.11463696 0.11390999 -0.03549725
-0.2639167 0.20992778 0.093621776 -0.32742625 0.22932222 -0.10877436 0.23374274 -0.13145588
-0.372284 0.048427142 0.18191005 -0.1891618 0.30742034 0.30000594 0.28037202 -0.3599577
-0.26461866 -0.30256033 -0.09826912 -0.08498214 -0.15371422 0.13846646 -0.058695167 0.17013468
-0.37976044 -0.058718935 -0.3768616 0.14266066 -0.4213678 0.24474244 -0.08881754 -0.16729008
-0.0010520895 -0.25091857 -0.20702244 0.09907334 0.29140157 -0.03532521 0.18777478 0.28071463

conv1.0.bias f4 [16]
00000000: c679 a43e 16a3 00be 9ad5 c33e a965 573c
00000010: f106 cabc f4bf db3d 12c7 303e 0a4b 403e
00000020: a471 60bd d545 e3bd 5018 c43d 26e8 a13d
00000030: fba7 ab3d 1172 c73d 1034 0c3d 50aa 1d3e
0.32124156 -0.12562212 0.38248903 0.013146796 -0.024661513 0.107299715 0.1726344 0.18778625
-0.054795876 -0.11097304 0.0957495 0.07905607 0.08381649 0.09738553 0.03422934 0.15397

conv2.0.weight f4 [16, 16, 3, 3]
00000000: 030b 9639 3e7b 84bd 929f 063c 1bed 99bc
00000010: 9c0f 91bc c8be cb3c d3d1 983a 07e1 aa3d
00000020: d34d 80bc c4c0 a1ba 499b b9bd 3791 97bc
00000030: 13a3 71bd 65a1 463d 3e26 613c 542f fabc
00000040: d7b5 2bbd 73bf b43c cbe9 803d 055a bbbc
00000050: 9e9a 2a3d 2eff 153c 600b 1dbc 8833 b9bd
00000060: fd30 7fbc 5c77 22bd e0db 823d 82bd 6c3d
00000070: f900 c73d 9f47 3dbd 54e9 a8bc fa38 cbbd
00000080: d507 15bc 9648 97bd 6759 f63c 11bd 823d
00000090: d05f 99bd 4e1c 07be c1d9 c33d 7991 a5bd
000000a0: b45d 4fbd d4ab ff3b b4cb 353d 801c 233c
000000b0: a938 4cbd aaf9 963c eb34 d1bd bf42 703d
000000c0: b192 b03c 7886 113d c146 54bd ce29 b93c
000000d0: 8f60 22bd 59c6 023d 30e4 383d ea96 ccbb
000000e0: 342a a33d 6c23 9d3c 2393 08bd e58a b4bd
000000f0: e75a 9ebc 320f 2fbc 55c3 903d f52f 7d3d
00000100: 8726 66bc 4739 3b3d 624e 3d3d fa7e 9c3c
00000110: 0567 5fbd df6b 8cbc 8b9b 7dbd 632c d73c
00000120: be8b c1bd c45e 903c 4148 863b ba90 f13c
00000130: f059 a6bd e3be 9abd 3300 d9bd 3dd1 8fbc
00000140: 45ce 353d aae1 d2bc 6572 433d 2abc 7e3d
00000150: 4dd9 f33c 3199 93bd 93e7 afbd 144f 983d
00000160: 1a8e 833b 78bd 9bbc d447 03bd 7368 873d
00000170: fa61 87bd d87f 883d 8697 933d b59e abbc
00000180: 4ba2 b7bd 5a54 143c 54d9 0dbd bdc4 84bd
00000190: ffba 11bc 4ea2 c63b 7a2a 7abd 0d06 4abd
000001a0: 61d3 8e3d 3113 8ebd 3f77 f2bc 8b8c 2abd
000001b0: 986d b93c 8151 c9bc d5dc 83bc 2ac2 2bbd
000001c0: b648 5bbb f6f7 113d 81f0 cb3d 9f67 893d
000001d0: 1362 423d 57d9 fbbc db84 b7bd c001 01be
000001e0: 346e 3fbd d59b 3f3d 219c 32bd 029a 963c
000001f0: 818a 853c b837 ddbc 854e babd dbc0 eebd
00000200: 8639 f6bd 20f4 06be 7e65 b6bd 3e46 043b
00000210: 513a 1abd 88f8 a6bb d852 7fbc 8905 983d
00000220: 05f8 90bd d242 cebd 9e5b 46bb 7601 11bd
00000230: 932f 59bd 8c30 673b c099 0a3d f7b1 6abd
00000240: e2fe 1e3e 9d9c 703d 873e 843d 1b8c 2abd
00000250: b342 c23b 8d51 123d 7e02 7a3d 854c af3d
00000260: d41a b03d ac71 97bd f6ca f03b 0900 553c
00000270: bb91 da3b d430 543d b690 8fbd 9f79 d23c
00000280: e4ca c6bd 6cf7 573b 75fd d83c fc68 f1bb
00000290: bc06 5d3d 12b6 cebd c0a3 82bd 68e9 fbbc
000002a0: 529a acbd b35a 243d 153d cb3d 00b8 9c3c
000002b0: 1372 4ebd 86db f2bb a563 b9bc 75f1 8ebd
000002c0: 400c 11bc 6bf6 f7ba 4ac3 3ebc d705 4bbd
000002d0: e4f1 693b 4e24 983d d176 573d 6205 18be
000002e0: 4adf fabc 4f7c eebd aa2e 90bd da77 c3bd
000002f0: 0069 a2bc cabb 083d a735 8e3d f1c9 e2bc
00000300: 42de 8cbd 9d65 65bd 410d e63c 2838 fdbc
00000310: a5b9 1abd 3cad 91bd cd2c 943d 59b6 ad3d
00000320: ec4e d23b 1d0a 11bc 85d7 e3bc 35ca babd
00000330: 904a 14be 7aaa 133c c2f2 c03c c39e b13d
00000340: 402a 70bd 152d 3cbd 14b1 80bd 98b8 3c3d
00000350: 7674 9cbd d293 613d 6e78 6d3d bb0b b8ba
00000360: 4530 a03d d7e3 d13d e831 37bd 8e69 b4bd
00000370: 2648 28bd 2aa3 cdbc baaf a6bd 13a2 6d3d
00000380: 465e 14ba 5d3c 083d 88b4 e8bd fee0 09be
00000390: 0920 19bd 0add 70bd dfa5 923d 3628 ddbd
000003a0: 165e 9bbb 3de7 c7bd 964c e23c 3a22 513d
000003b0: 0d98 573c 9c22 26bd 47bc d6bc 94e1 88bd
000003c0: 0fef 24bc 5368 643b b561 013d 13a8 4f3d
000003d0: 8764 913d 55a1 77bd 773e 963d 853d 7fbc
000003e0: c15a 3339 ee2c e93c eaba 56bc e9e3 4b3c
000003f0: 1b61 2d3d a7a3 26bd 5650 fdbc 70af 4c3d
0.00028618434 -0.06468819 0.008216755 -0.018789819 -0.017707638 0.024871245 0.0011659212 0.08343702
-0.01566211 -0.0012340774 -0.090628214 -0.018501861 -0.05899341 0.04849376 0.013742028 -0.030540146
-0.041921463 0.022063946 0.062945925 -0.022870073 0.04165136 0.009155078 -0.009585232 -0.09043032
-0.015575645 -0.03966461 0.06389594 0.057797916 0.097169824 -0.04621088 -0.020619072 -0.09922977
-0.009096106 -0.073868915 0.030071927 0.06383718 -0.07488978 -0.13194391 0.09563018 -0.08084387
-0.05062647 0.007802466 0.04438372 0.009955525 -0.049858723 0.018429596 -0.102151714 0.058657404
0.021554323 0.03552863 -0.05182529 0.022602942 -0.039642867 0.03192744 0.04513949 -0.0062435763
0.07967034 0.01918193 -0.033343446 -0.088155545 -0.019330455 -0.010684775 0.07068507 0.061813314
-0.014047272 0.04570892 0.04621733 0.019103516 -0.054541606 -0.01714128 -0.061915915 0.026266282
-0.09450482 0.017623313 0.004097969 0.029487956 -0.08122623 -0.0755594 -0.10595741 -0.017555827
0.044386167 -0.02574237 0.047716517 0.062191166 0.029766703 -0.07206953 -0.08589091 0.07436958
0.0040147426 -0.019011244 -0.032050923 0.06611719 -0.066104844 0.06665009 0.07206635 -0.0209497
-0.08966502 0.009053314 -0.03463109 -0.06482837 -0.008894681 0.0060618287 -0.061075665 -0.049322177
0.06973911 -0.06937254 -0.029597877 -0.04163794 0.022635266 -0.024574997 -0.016096512 -0.041933216
-0.0033460087 0.035636865 0.09957982 0.06709217 0.047456812 -0.030743284 -0.08960887 -0.12598324
-0.046735957 0.046779472 -0.043605927 0.018383984 0.016301395 -0.027004108 -0.09097008 -0.11657878
-0.120226905 -0.13179064 -0.08906077 0.002018347 -0.03765327 -0.005095545 -0.015583716 0.07422931
-0.07078556 -0.10071339 -0.003026701 -0.035401784 -0.053023886 0.003527674 0.033838034 -0.057298627
0.15526918 0.058743108 0.06457239 -0.04163752 0.0059283613 0.035722304 0.061037533 0.08559517
0.08598867 -0.07394728 0.0073484136 0.013000497 0.0066702045 0.05180438 -0.07010023 0.02569276
-0.09706667 0.0032953871 0.026488045 -0.0073672514 0.0539615 -0.10093321 -0.06378889 -0.030750945
-0.08427872 0.04012556 0.0992376 0.019130707 -0.05040176 -0.007411423 -0.022630522 -0.06979648
-0.008853018 -0.0018918043 -0.01164324 -0.049566116 0.0035697157 0.074287996 0.052603547 -0.14845803
-0.03062405 -0.11644804 -0.070401505 -0.09544344 -0.019825459 0.033382215 0.06943827 -0.027684184
-0.0687833 -0.05600511 0.028082492 -0.030910566 -0.0377747 -0.0711312 0.072351076 0.08482046
0.0064180996 -0.008852509 -0.027812729 -0.09120599 -0.14481568 0.009012813 0.023553256 0.086728595
-0.058634043 -0.04594143 -0.06283775 0.04607448 -0.07639401 0.055072613 0.05797618 -0.0014041582
0.07821707 0.10248535 -0.04472533 -0.088091955 -0.04108443 -0.025102217 -0.08138986 0.058015894
-0.00056598 0.033260692 -0.113625586 -0.13464734 -0.037384067 -0.05880455 0.07160544 -0.10798685
-0.0047414405 -0.09760902 0.02762441 0.05105803 0.01315881 -0.04056035 -0.026212825 -0.066836506
-0.010066762 0.003485222 0.03158732 0.050697397 0.07099252 -0.060456593 0.07336133 -0.015578632
0.00017104579 0.028463807 -0.013106087 0.012444475 0.042328935 -0.040683415 -0.030922096 0.049971998

conv2.0.bias f4 [16]
00000000: c04e d0bc b0de f73b 624d 223d f51c b2bc
00000010: 72e2 a03c 5c34 bc3d e51a 7ebd 4ef3 543b
00000020: b987 98bd b025 acbd fd5b 1c3d 7030 44bc
00000030: 5d40 a93d 7614 babc 872b a2bd 0f5c 0e3d
-0.025428176 0.007564388 0.03962458 -0.021742323 0.019639228 0.09189674 -0.062037367 0.0032493654
-0.07447762 -0.08405626 0.038173664 -0.011974439 0.082642294 -0.022714835 -0.079184584 0.034755763

conv2.1.weight f4 [16]
00000000: c8d8 833f f2a2 843f a2aa 7a3f 1ff4 6c3f
00000010: 52c2 8b3f 3cf1 643f 4d2b 823f addd 833f
00000020: 98a1 813f 84fd 813f 8a17 853f 5673 873f
00000030: 2ee7 703f 6bab 853f dbed 6c3f 3a3b 7a3f
1.0300531 1.0362227 0.97916615 0.9256 1.0918677 0.89430594 1.0169464 1.0302025
1.012744 1.0155492 1.0397809 1.0582073 0.9410275 1.0442938 0.9255044 0.9774662

conv2.1.bias f4 [16]
00000000: fd6b ffbd f2bb 15be a1f8 e2bd 1e2b fcbd
00000010: c042 13be a99d f1bd 8bdd ddbd d6e6 eebd
00000020: 1f4e a4bd 8d92 08be 06b4 cebd 6a8b 8abd
00000030: 8439 0ebe 6da1 bbbd 548d e8bd 2a28 e7bd
-0.12471769 -0.14622477 -0.110825785 -0.123129115 -0.14380932 -0.117976494 -0.108332716 -0.11665122
-0.08022713 -0.13337155 -0.100929305 -0.06764872 -0.13889128 -0.09161649 -0.11355081 -0.112869576

conv2.1.running_mean f4 [16]
00000000: 904e ccbe b777 163e 4d0e 9dbe aeb9 66be
00000010: 2cca c4be ab71 50be 8cd6 28be bcbf 00bb
00000020: 6959 f4bd cdb0 91bd b315 babd 559b 60be
00000030: 2685 823e 1359 3a3e 19b9 ddbe 1098 dbbc
-0.39903688 0.14694105 -0.30674973 -0.22531769 -0.38435495 -0.20355861 -0.16488093 -0.0019645533
-0.11931116 -0.071138 -0.0908617 -0.21934254 0.2549221 0.18198042 -0.4330528 -0.026805907

conv2.1.running_var f4 [16]
00000000: 0f29 863d ea24 c73d d177 373d 97fd b83d
00000010: 0856 e63d 81e8 ac3d 0177 ff3d e8c0 bc3d
00000020: 81fd f73d 4029 353d ca24 de3d fd09 523e
00000030: d331 c23d ed1b 693d ab80 303d e660 0f3e
0.065508 0.09723838 0.044792 0.090327434 0.11246878 0.08442784 0.1247387 0.092164814
0.12108899 0.044228792 0.10846861 0.20511623 0.094821595 0.056911398 0.043091457 0.14001808

conv3.0.weight f4 [32, 16, 5, 5]
00000000: aacb 05bd 6ffd 063d 3539 843c afac 9e3c
00000010: 4de7 3d3c fded 91bb f266 a03c 467e b3bd
00000020: a6ae 723d a4b3 253d f0b9 db3b 660d edbc
00000030: d190 81bc f917 ff3c 2247 e0bc 0bfa b73c
00000040: ef9b 863b eb57 443d 7d53 75bd 8c35 88bd
00000050: d3fc 973c f050 0fbc 4e96 59bd 287c 28ba
00000060: a0fc e2bc 5c18 6cbd 69de edbc 7b95 fdbb
00000070: 36fe f0bb 1845 90bc d45c 3dbb 5a04 3e3c
00000080: f2ee 9aba c63f dbbc a24c f6bc 2875 99bd
00000090: 9281 753d e17f 643b 82f9 b7bc 24f8 a83c
000000a0: f80d 95bc 55a5 6ab8 e248 d3bc e91e d4bc
000000b0: c5e5 103d 066a 6dbd e828 9cbb 8040 ed3b
000000c0: 8b87 ee3b 093e 93bc e793 43bd cb44 8ebd
000000d0: e3d1 c5bb b0de 8bbc acfc bb3c 5a18 a8bc
000000e0: a969 603d b707 423c 6931 91bd eaf4 cdbd
000000f0: f6a5 81bc a71c 4a3d ae68 8e3d 40ed d63b
00000100: c0bf b8ba 8e53 9c3c 6dd4 4bbd 25fe b2bc
00000110: ca31 8d3d d13b e1bc a552 023d 323c 693c
00000120: b32c 9fb9 8903 8f3d 0b72 873c d0fe f13b
00000130: d106 5dbd cc1f 03bb f996 d53c 9079 f3bc
00000140: 79a2 063d f751 7ab9 9570 3abd 70b0 8d3c
00000150: aa0c 843c d1f8 10bd 7b44 51bd 8fcb 8a3b
00000160: 9571 7d3d 6986 58bd b0da cdbb 87c7 723c
00000170: 0b7b edbc 108d 0bbd d223 7ebd c91c fa3c
00000180: d1c7 10bd 31ab 14bd 08ba 6a3c 29d4 65bd
00000190: 3338 b63c f7b4 9abd 6eb3 3cbc 7b66 9fbd
000001a0: 3b40 ef3b 3c86 cbbd 9cb4 dbbd 2c0a 3ebd
000001b0: bdab 4d3d 0c1b bd3d f02a 9e3c 3c8f b7bb
000001c0: e789 13bd 511b 0f3d 4b9f 3abc 295b c0bc
000001d0: 1b3e adbc ef35 1abd e10a fd3c ccbe ba3c
000001e0: d372 783d bf0e ad3c a062 933a cb41 62bd
000001f0: 2fff 0bbd a991 823b f895 9dbc e646 37bd
00000200: 608d bf3c 2587 86bc c773 dc3c 7b07 943c
00000210: 1c56 80bc b90a 60bc 4a5c ae3c 55e2 733d
00000220: 1261 1bbd ecc8 133d 42bd a8bc 05e7 fb3b
00000230: 089d 883c bf61 71bc ffaa 1e3d 7ddc 7f3d
00000240: 84f3 ca3b ecb4 0fbd 9ef4 003c ccd2 47bc
00000250: 7520 3a3d a514 4ebd 4849 b83b b608 68bd
00000260: 8054 8ebd b0f2 5839 11b1 b8bc bf86 abbd
00000270: 2a3f 0bbd 774c cb3c 5ebe 633d f081 2a3d
00000280: 3cae b5bc 6781 babc 8d8c 9bbc 3e1f 39bc
00000290: 874b f6bb e929 933c 706b 2d3c 52a0 053d
000002a0: c312 0bbc 1816 87bd 475b 3cbd 04b3 6bbd
000002b0: 8447 34bd ab42 dc3b 7944 c83c 6b9f bc3c
000002c0: 3ecd 7e3d 4471 723d 5756 953d 3456 513d
000002d0: 409e aebc 5cd6 053d c00c ac3c 1fec d63c
000002e0: 15a5 1cbc 315c 08bc 04f2 193d ac21 37bc
000002f0: 3a8f abbb 3495 503a c4d3 ff3c ef77 273b
00000300: 0f09 233d fbeb d9bc c29d 533c 5335 973c
00000310: 5673 33bd 1847 1e3d d7cb 523d 29db 993a
00000320: 7cec 1bbd 3571 cfbd 859c 1b3d be7e 8cbb
00000330: b97b bd3d c6ff 723c 2901 84bb 6321 3f3d
00000340: 433a 613d 074c b13d 7af6 2d3a d6d7 2bbd
00000350: f832 d3bd 9ed9 1a3d 016f 27bd f757 953d
00000360: 47aa 2fbd d585 253d be17 7a3d 7ef4 a13d
00000370: 63cb 3eba 5948 aebd 1006 88bd 4e94 bc3b
00000380: 22ca 883c 18ad a43d ebc1 483d c685 68bc
00000390: 8dc5 193d ba14 0f3c b793 d03c 05b5 bbbd
000003a0: c520 82bb f74f 1e3d babd 183d 3f89 d5bb
000003b0: 4343 bbbc 3cb3 4dbd 8bdb 55bc e3e0 493d
000003c0: ecf9 b53a 9d0a bb3b 5b5e 2abd 060a 2fbd
000003d0: 543d ba3c c901 86bc 7ade 65ba d544 d93c
000003e0: 8899 883c c034 9fbc 79e9 dc3c 16fd 2ebc
000003f0: 95ed 333d f7f3 143d a358 173d d1fb 4f3d
-0.032664932 0.032956537 0.01614056 0.019369451 0.011590791 -0.0044534192 0.019580338 -0.08764319
0.05924859 0.04045452 0.006705515 -0.028937053 -0.015816124 0.03113936 -0.027377669 0.022458097
0.004107944 0.047935408 -0.059894074 -0.06650838 0.018553173 -0.008747324 -0.053121857 -0.0006427192
-0.027708352 -0.05764042 -0.029036717 -0.0077387667 -0.007354523 -0.017611071 -0.0028894441 0.011597717
-0.0011820479 -0.026763808 -0.030065838 -0.07493049 0.05993802 0.003486626 -0.022457842 0.020626135
-0.018195137 -5.5943925e-05 -0.02579159 -0.025893645 0.035375375 -0.05796244 -0.0047656186 0.007240355
0.0072793416 -0.017973917 -0.047748473 -0.06946715 -0.0060369833 -0.01707396 0.022947632 -0.020519424
0.054788265 0.01184266 -0.07089502 -0.10056479 -0.015826207 0.04934373 0.0695356 0.006559044
-0.0014095232 0.01908281 -0.049763132 -0.021849701 0.06894262 -0.027494343 0.031817097 0.014235543
-0.00030360147 0.06983096 0.016533872 0.0073851123 -0.05396158 -0.0020007966 0.026072966 -0.029721051
0.03286979 -0.00023872392 -0.045517523 0.017296046 0.01611932 -0.03539354 -0.0510907 0.004235692
0.0618759 -0.05286256 -0.006282173 0.014818079 -0.028989336 -0.034070075 -0.06204588 0.030531304
-0.03534681 -0.036296073 0.01432658 -0.056110535 0.022243595 -0.075540476 -0.011517389 -0.077832185
0.007301358 -0.099377126 -0.10727808 -0.04639642 0.05021261 0.092336744 0.019307584 -0.0056017917
-0.036020186 0.03493816 -0.0113905175 -0.023480969 -0.021147778 -0.03764909 0.030888977 0.022796057
0.06065638 0.021125196 0.0011244603 -0.055238526 -0.03417891 0.003984649 -0.01923655 -0.04474535
0.023382843 -0.016421864 0.026910676 0.018069973 -0.01566606 -0.0136744315 0.021284241 0.05954202
-0.03793437 0.036080286 -0.020598058 0.007687452 0.01667644 -0.014732777 0.038737293 0.062466133
0.00619358 -0.03508465 0.007870821 -0.012196254 0.04544111 -0.050312657 0.00562397 -0.056648932
-0.06949711 0.00020689773 -0.02254537 -0.0837531 -0.033995785 0.024816735 0.05560147 0.041627824
-0.022177808 -0.022766782 -0.018987918 -0.011298953 -0.007516328 0.01796432 0.010584697 0.032623596
-0.00848836 -0.06596011 -0.045985486 -0.05754377 -0.044013515 0.0067218146 0.024446713 0.023025235
0.062207453 0.05919005 0.07291859 0.0511076 -0.021315694 0.032675132 0.021002173 0.026235638
-0.009560843 -0.008322761 0.03758432 -0.011177462 -0.00523558 0.00079568033 0.031228907 0.0025553664
0.03980356 -0.026601782 0.01291603 0.018458044 -0.043811165 0.03864202 0.051463928 0.0011738288
-0.038067326 -0.101290144 0.037991066 -0.00428757 0.09252114 0.014831489 -0.0040284586 0.0466627
0.054987203 0.08657079 0.0006636154 -0.041953884 -0.10312456 0.037805192 -0.040877346 0.072921686
-0.042887 0.040410835 0.0610578 0.07907961 -0.0007278232 -0.08509893 -0.06641781 0.005754984
0.016697947 0.080408275 0.04901306 -0.01419205 0.037541915 0.008732969 0.02546106 -0.09165386
-0.0039711916 0.03865048 0.037290312 -0.006516605 -0.022859221 -0.05021976 -0.013052831 0.049286734
0.0013883687 0.0057080523 -0.04159389 -0.04273417 0.022734322 -0.016358273 -0.00087688083 0.02652208
0.016674772 -0.019434333 0.026966797 -0.010680458 0.043927748 0.036365476 0.036949765 0.05077726

conv3.0.bias f4 [32]
00000000: facc e63b 764b 8a3c 5346 25bd 961a 453d
00000010: 14aa ea3c e97a 0a3a 6248 21bd bb72 aabc
00000020: a4fe 20bd 9636 2d3d d005 eabc d3bb 033d
00000030: da72 4fbd 9c03 cebc 3531 153d a0fd edba
00000040: 64f7 c2bc 8ca7 01bd 9d3c 6f3c 8479 193d
00000050: 20d8 463c be65 b93c 53a6 053d 8675 c6bc
00000060: 73e3 d03b 6850 eabb 5d8f 1f3d 53c4 3cbd
00000070: 504a d5bc 0bfd 163d a530 3fbb cb1d 2abc
0.007043478 0.016881686 -0.04035027 0.048121057 0.028645553 0.0005282597 -0.03937567 -0.02080666
-0.039305344 0.042288385 -0.028567225 0.032161545 -0.05064664 -0.025148205 0.03642388 -0.0018157251
-0.023799606 -0.031653926 0.014601854 0.037469402 0.012136489 0.022631522 0.032629322 -0.024225961
0.0063747703 -0.0071506985 0.03895508 -0.046085667 -0.026036412 0.036862414 -0.0029173282 -0.01038308

conv3.1.weight f4 [32]
00000000: eb87 a33f 1270 a13f 7340 9b3f 02fc a93f
00000010: 8c03 a53f a3df a13f 297f a03f 0342 983f
00000020: c011 a93f fd62 a33f 0a98 a53f ca15 ac3f
00000030: b7d1 973f 1080 af3f ca89 a73f ba1e a63f
00000040: 450c 9e3f b0eb 9e3f b4a7 a33f 2f00 a53f
00000050: e1e9 a13f 2040 993f 57b2 9c3f 9c47 a03f
00000060: 2936 9a3f c646 a03f fbf4 ad3f 08b2 963f
00000070: d644 9e3f f05f 9e3f b7e0 9e3f 77d2 9a3f
1.2775854 1.2612326 1.2129043 1.3280032 1.2891707 1.2646374 1.2538806 1.1895145
1.3208542 1.2764584 1.2937024 1.344415 1.1860875 1.3710957 1.3088925 1.2978127
1.2347494 1.2415676 1.2785554 1.2890681 1.2649499 1.1972694 1.2241925 1.2521853
1.2047778 1.2521598 1.3590387 1.1773081 1.2364757 1.2373028 1.2412328 1.2095479

conv3.1.bias f4 [32]
00000000: ff36 0cbc e5e9 76bc 3399 71bc a83e 0dbd
00000010: 7f36 543d fdeb 663d e868 713c 2a84 d83c
00000020: d751 e13c 228d f03b 4542 c93c 1c62 ddba
00000030: 8dac 9abc ade4 1e3d 2ca7 8e3c de06 023d
00000040: 9ddc 073d 007f 3e3c 9fad 383d 7e33 113d
00000050: a3ee ddbc c7e8 683c 7e3c 683c a918 5f3c
00000060: c998 e73c 2b27 8b3c 358d 5cbc a598 103d
00000070: c32a 0b3d 649e 913d 3e7c 28bc 56de 3a3d
-0.008558034 -0.015070413 -0.014745998 -0.03448358 0.051809784 0.0563774 0.014734484 0.026430208
0.027504845 0.007341043 0.024567733 -0.0016890201 -0.018881107 0.0387923 0.017413698 0.03174483
0.033169378 0.011626959 0.045087453 0.035449497 -0.02709133 0.014215655 0.014174579 0.013616719
0.028271096 0.01698645 -0.013461401 0.035301823 0.033976328 0.07110289 -0.010283528 0.045622192

conv3.1.running_mean f4 [32]
00000000: 0b67 7d3c 63ab 093e 2675 e6bd 4b1e f5bc
00000010: 395d 9c3e 8573 ac3e c9e0 64bd bf80 503e
00000020: 9e34 c73e d7e4 8a3e b544 053e 883c d43c
00000030: b362 eb3c 803d 073d 08df 41b9 74ed 5a3e
00000040: 5fe0 8f3d 704e 85bc 8425 913d ee73 a73d
00000050: 2590 57be 6649 14be 583d 423e 67a5 a5bd
00000060: 61f6 a63e cb18 27be e3de babd 710e cb3d
00000070: 959b cd3e c28b 303e 9d6d 393d c877 b3bd
0.015466462 0.13444285 -0.11252813 -0.029921671 0.30539873 0.33681884 -0.055878434 0.20361613
0.3890733 0.27127716 0.13014491 0.02590777 0.028733587 0.033017635 -0.00018489 0.21379644
0.07025217 -0.016272753 0.07087234 0.08176409 -0.2105108 -0.14481124 0.18968713 -0.080881886
0.32609847 -0.16318052 -0.091245435 0.09914864 0.40157762 0.17240813 0.04527055 -0.08763081

conv3.1.running_var f4 [32]
00000000: 5f7d 973e 8d47 8b3e a37d 6e3e f5ce 983e
00000010: 979a e13e d3ca c03e 5018 8a3e 3e05 a53e
00000020: 68cc a93e 736c a73e 9784 bc3e f55c b13e
00000030: 121e 963e b55e 923e a303 d13e 68a7 b63e
00000040: 81c2 8b3e b9e4 693e 2980 f23e 467e b13e
00000050: 2079 e43e af02 963e 6ab0 a53e b3dd 803e
00000060: bd9f 983e 0ef2 943e 4f5a b13e 9dcd c33e
00000070: c61e d13e 2d20 a33e 7964 9f3e d2dc d83e
0.29587838 0.27203026 0.23290114 0.29845396 0.44063255 0.37654743 0.26971674 0.32230562
0.33163762 0.32699928 0.36819908 0.34641233 0.29319817 0.2858788 0.40823087 0.35674596
0.27296832 0.22841157 0.47363403 0.3466665 0.4462366 0.29298922 0.32361156 0.25169143
0.2980937 0.29090923 0.34639212 0.38242808 0.4084379 0.31860486 0.31131342 0.42355973

out.1.weight f4 [10, 1568]
00000000: 9183 2a3c a355 c7bc a8a9 a0bb 4718 5dba
00000010: 59f8 14bd d3aa 7c3a f836 3a3c f402 1dbb
00000020: 43e3 c7bc 08c3 d8bc 91ae 17bd c54f 183c
00000030: dcb7 a33c ad6f 043d e190 60bc a08f 913c
00000040: 91d9 34bc ae44 4e3c 5aaf 30bc 67f1 873c
00000050: 9498 363d 2348 1b38 7ee9 873d 7961 843d
00000060: f829 423d 1086 86bd b25e d2bb 5083 443c
00000070: c211 9a3c 6b27 793d 8f81 9b3d ea35 a6bd
00000080: 11cb 013b afb2 c9bc a775 e33c 3ebe de3b
00000090: d444 3ebd 587e 39bd 6b00 323c 7e55 12bd
000000a0: ec6a 20bd 991c c5bc 1a91 cebb 8379 06be
000000b0: 861e 94bd e62c babd a40b 41bd 604e a3bc
000000c0: 492f a93c ee6a f3bc 693a 0d3c 03dd 973c
000000d0: e580 c5bc 99c4 f4ba 2797 323d 9e02 6a3c
000000e0: 8ec5 343c 6a00 e03a e2da 35bd cb40 a83c
000000f0: 5296 453d 5b26 7e3b 3851 233d 2b1e 123d
00000100: cbba 053d 7d41 29bd f47e cf3d 4ee4 893d
00000110: 6be1 5ebc b2da 9b3d bc04 c43c b704 f23c
00000120: 6343 02bd 7c35 c33d 02ea 3b3d 1116 173d
00000130: 210d 5c3d 9beb 063d 998e 5b3d cd8a c8bc
00000140: 0f0e 9e3c 7637 a5bc 3072 96bd 39fc 653d
00000150: 3ebf b23a 8fed 5d3d 85cf 06bd ff33 54be
00000160: cf48 98bd 7df3 f5bd de03 cfbb 90cf a9bb
00000170: 05d9 0f3c 1314 033d c132 b9bd badd 96bd
00000180: af79 99bd e95c e2bc 1868 49bd edc9 aebc
00000190: 1533 ad3b 4fd5 00bd 46cc 5a3c b69d 793c
000001a0: b64f 21bc 89ff b3bc 8cf5 8c3c e2d1 27bc
000001b0: 6c70 e03c f998 9ebc 44b7 54bc e4a3 8d3c
000001c0: 549b a8bc 94c4 7ebd a7b9 44bd adec 07bb
000001d0: 218e a93c dfc5 e03c 9981 2cbd db9f 06be
000001e0: 2508 e9bd 9754 113c 5f86 803d 6ec0 023d
000001f0: 930f 2fbd 51f9 ae3a b4bc 67bd 418e c0bc
00000200: f5a2 553c 2b0c 8b3b e3bd 54bd ea4b c4bd
00000210: 3b90 2a3c 6917 e03c ee4d 80bd 2daa 1f3c
00000220: e645 38bd 5aa9 32bb 1ad5 2bbd a31e 013c
00000230: 93b3 8c3c 812c 0abd 9499 0a3d 06a9 83bb
00000240: 7d70 a23c ca43 913a 1443 07bd c95e a4bd
00000250: e879 9dbc debf 5bbd ce4c e0bc 61ed b2bd
00000260: 1be3 f8ba 7061 393b 9976 98bc 55bd 113c
00000270: 85d6 5fbc 0661 9f3c 4668 7f3d 4182 b93c
00000280: 3c9c 9f3c 0bed 3e3d e946 f13c cb84 043a
00000290: e25d c03c 2287 583d 5ac8 443d db03 253d
000002a0: 1dda 9c3d b2b2 733d d6f4 cf3b 80f4 d3bc
000002b0: 0e53 803d f005 ad3d d7ed be3c 0cec 963c
000002c0: eecf 8e3b abc7 713b 9bf0 78bd efbe d8bc
000002d0: 503c 2a3c d21e 123c d164 553d 7786 5f3c
000002e0: 9b60 a83d a1dd 47bc 66e7 41bd b4cb 9cbd
000002f0: e7c7 f6b9 0fbd 1f3d de14 0e3d 1b9f a43d
00000300: 520d 06bb de8f 0b3c ee94 d9bb e261 a93c
00000310: dd85 fe3c ee2e 663c 59f9 603c 4764 643d
00000320: 96bd 593d 54d6 ac3c 826a d63a 6e95 283d
00000330: a95e cc3c 2307 da3d 9fbc ba3c e3e3 f9bd
00000340: dbe0 f4bd 0386 5ebd 81b2 b53c 1ba5 08bd
00000350: c411 83bc ce5b 59bd 43b6 93bd 45c3 b9bd
00000360: 85a2 80bd 7292 8abb b061 94bd 3240 92bd
00000370: 42c8 25bd b181 f8ba 1c98 0a3d 5809 03bd
00000380: ff07 83bc 3478 9dbd 0d7a 41bd 315b 87bd
00000390: 77f7 673d 4ce3 e0ba 43a4 2c3d 1e62 2abc
000003a0: 5067 a93b 36b2 d53c e8a0 1b3c 78f4 293d
000003b0: c2c2 aa3b eda7 7a3b 0f14 96ba 861f 30bb
000003c0: cc20 063d 88ab 1a3c 9f00 80bc 8408 82bd
000003d0: 2552 89ba 4126 c83b 2e54 1f3b acc1 27bc
000003e0: 18e0 f13b 3a08 8dbd 8744 86bc d387 bc3c
000003f0: 6868 b6bb 5b70 733c d9ae 64bc e849 4fbc
0.010407344 -0.024332827 -0.004903037 -0.00084340986 -0.036369655 0.0009638492 0.011365645 -0.002395806
-0.024400359 -0.026460186 -0.037031714 0.009296362 0.019985132 0.032333065 -0.013706417 0.017768681
-0.0110382 0.012589617 -0.010783995 0.016594602 0.044579104 3.7022062e-05 0.06636332 0.06463904
0.047403306 -0.06568539 -0.00641998 0.011994198 0.018807296 0.060828608 0.07593071 -0.08115752
0.0019804875 -0.024621336 0.027766062 0.006797581 -0.04645236 -0.045286506 0.010864357 -0.035726063
-0.03916447 -0.024061488 -0.0063039185 -0.1313229 -0.072323844 -0.09090595 -0.047130242 -0.019934833
0.02065243 -0.029714074 0.008619883 0.018538004 -0.024109313 -0.0018674313 0.04360118 0.014282851
0.011033429 0.0017089967 -0.044398196 0.020538708 0.04823906 0.0038780186 0.039872378 0.0356733
0.032648843 -0.04132222 0.10131636 0.06732999 -0.0136035485 0.07610072 0.023928039 0.029543264
-0.031802546 0.09531686 0.045877464 0.03688628 0.05372346 0.032939535 0.05360279 -0.024480248
0.019293813 -0.020168047 -0.07345998 0.05614874 0.0013637317 0.05418163 -0.03291275 -0.2072296
-0.07435762 -0.12009332 -0.0063175997 -0.005182214 0.008779769 0.032001566 -0.09042884 -0.0736651
-0.074939124 -0.027632194 -0.049171537 -0.02133652 0.0052856305 -0.031453427 0.013354367 0.015235355
-0.009845665 -0.021972435 0.01720693 -0.010242911 0.027397357 -0.019360052 -0.012983147 0.017290063
-0.020581879 -0.06219919 -0.048028614 -0.0020740435 0.020697655 0.027438102 -0.04211578 -0.13146918
-0.113785066 0.008870265 0.06275629 0.031921797 -0.042739462 0.0013349449 -0.056576446 -0.023505332
0.01303934 0.004243394 -0.051938903 -0.09584792 0.010410364 0.027354913 -0.06264864 0.009745163
-0.044988535 -0.0027261586 -0.041951276 0.0078808395 0.017175471 -0.03373385 0.03383787 -0.004017952
0.01982903 0.0011082825 -0.033022955 -0.08025891 -0.019223168 -0.053649776 -0.027380373 -0.08736683
-0.0018988581 0.0028286837 -0.01861124 0.008895238 -0.013661985 0.019455444 0.062355302 0.022645118
0.019483678 0.04661278 0.029452758 0.0005055188 0.023482267 0.052863248 0.048042633 0.04028688
0.07658789 0.05949659 0.0063463254 -0.025873423 0.062658414 0.08448398 0.02330677 0.018423103
0.0043582832 0.0036892693 -0.060776334 -0.026458232 0.010390356 0.008918481 0.0520981 0.013642899
0.08221551 -0.012198837 -0.04733982 -0.07656041 -0.00047069715 0.03899866 0.03468787 0.080381595
-0.0020454717 0.008518187 -0.0066400683 0.020676557 0.03106969 0.014049275 0.013731324 0.055759694
0.05315932 0.021098293 0.0016358646 0.041158132 0.024947481 0.106458925 0.02279502 -0.12201669
-0.1195695 -0.054327022 0.022179844 -0.03336058 -0.015999682 -0.053066067 -0.07212498 -0.09070448
-0.06280998 -0.0042288834 -0.07245195 -0.071411505 -0.040474184 -0.001895955 0.03383647 -0.031991333
-0.015995024 -0.076889426 -0.047235537 -0.0660919 0.056632485 -0.0017157583 0.04214884 -0.0103993695
0.0051697865 0.026085954 0.009498812 0.04149291 0.005211205 0.0038247064 -0.001145007 -0.0026874258
0.03274612 0.00944031 -0.015625296 -0.063492805 -0.0010476751 0.006108076 0.002431165 -0.010239046
0.0073814504 -0.06886335 -0.016390098 0.023013985 -0.0055666454 0.014858331 -0.013957703 -0.012651898

out.1.bias f4 [10]
00000000: 1cac ae3c 0332 3a3d a62b 143c 570a 353c
00000010: afca b1b9 998d ce3c 5257 bf39 17e4 8c3c
00000020: 866f 093c 3bce 803c
0.021322303 0.04545785 0.00904361 0.0110498285 -0.00033911082 0.025214003 0.00036495418 0.017198605
0.008388406 0.015723338
