model/MNIST/model.pth (torch, 130095 bytes, 16 tensors)

conv1.0.weight f4 [16, 1, 3, 3]
000000 61 c0 aa be 0e 43 07 3e 5e 6d 86 3e dc 4f 23 be
       -0.33349898 0.13209173 0.26255316 -0.15948433
000010 57 27 a9 bd 79 3a 4b 3e 01 e2 16 be c5 e7 9b be
       -0.082594566 0.19846524 -0.14734651 -0.30450264
000020 4b 08 90 be 5f fb 60 3e 99 dd 2c 3e 94 85 02 3d
       -0.28131327 0.2197089 0.16881408 0.03186567
000030 82 c0 66 be 6b fe 32 be d8 d1 72 be d9 11 1f 3e
       -0.22534373 -0.17479865 -0.23712862 0.15534152
000040 e8 c5 a4 3d 80 25 82 3e 80 0c b9 be ff 3f 2a 3e
       0.0804556 0.25419235 -0.3614235 0.16625975
000050 a8 8a 7d 3e ec f3 bf 3d bc 45 75 be 9e 61 6f bc
       0.24759924 0.09372696 -0.23952383 -0.014610676
000060 c7 02 32 3e 55 62 ae 3d 32 1a e4 bd 8c 3b 43 3e
       0.17383872 0.08514849 -0.11137809 0.19065684
000070 ab db 61 3e 89 9f 64 3e b8 93 96 be 5d 44 3a 3e
       0.22056453 0.22326483 -0.29409575 0.18190141
000080 63 72 a4 be b9 69 29 3e 21 c3 24 be de d7 84 3e
       -0.3211852 0.16544236 -0.16090061 0.25945944
000090 c4 55 20 3e 5e 7b 2b 3e 17 38 0c be 58 f2 0a be
       0.15657717 0.1674628 -0.13693272 -0.1356901
0000a0 99 1b 47 be 2e a3 a6 be d6 ea d9 3d 9b 1e aa be
       -0.19444121 -0.3254637 0.106404945 -0.33226475
0000b0 ca 78 88 3e d9 b2 94 be 35 7a 1c bd 60 63 4a be
       0.26654655 -0.290427 -0.038202483 -0.19764471
0000c0 1f 1a 23 3e 12 6a 1d bc 34 35 c3 bd 5c 58 90 3e
       0.15927933 -0.009607809 -0.09531632 0.28192413
0000d0 80 37 6b be cd a3 82 be 37 e0 c3 bd b5 53 d9 3c
       -0.2297039 -0.25515595 -0.0956425 0.026529172
0000e0 09 b7 fd 3d 7d 80 1e be e8 e4 38 be 23 cb a2 3e
       0.12388427 -0.15478702 -0.18056071 0.31795606
0000f0 92 dc ae bd 8b 68 d5 3b af e9 e1 bd 6f 3f d0 3c
       -0.08538164 0.0065127066 -0.110309 0.025420872
000100 8e c1 63 be e5 33 91 be f3 95 94 be a9 81 86 be
       -0.22241804 -0.28359905 -0.29020652 -0.26270798
000110 9e 7a 99 3e 5c 9f 6e be a4 9a 94 3e 6b 5a 16 3e
       0.29976362 -0.23302978 0.2902423 0.14682929
000120 28 e3 15 3e 31 4a c2 3c 76 3d 2b 3d f8 a3 66 3e
       0.14637434 0.023717018 0.04180666 0.22523487
000130 79 d8 14 3e 81 90 cd 3b 22 b1 a3 bd 59 02 17 3e
       0.14535703 0.0062733297 -0.0799277 0.1474699
000140 cc 7d ed 3d ff 8e 3f be 20 59 05 3e bb d5 59 3d
       0.115962595 -0.18706892 0.1302228 0.053182345
000150 e3 dc 07 3e 94 96 98 be a3 c8 55 3e ee 55 a3 3e
       0.13267855 -0.29802382 0.20877318 0.31901497
000160 87 85 b1 be c7 ed 81 be a5 01 a3 bd 74 97 94 3e
       -0.34672186 -0.25376722 -0.07959298 0.290218
000170 3f fd 44 bb af d6 a7 be 6f 96 8c be 30 7d 1f be
       -0.0030058173 -0.32780978 -0.27458522 -0.15575099
000180 4e 9c 29 3e 6d b5 61 3d a5 ad e0 bd 16 e3 04 3e
       0.16563532 0.05510466 -0.1097062 0.12977251
000190 b1 a3 3a be 19 44 fc 3d c6 01 e8 3d 9f 13 91 3d
       -0.18226506 0.12317676 0.11328463 0.070838206
0001a0 d8 54 23 bd ed f1 bb be 30 95 ef 3d 25 d3 84 3e
       -0.039875835 -0.36708012 0.11698377 0.2594234
0001b0 9e fd 8c 3c 13 62 8c be 18 2f 85 bd 04 47 91 3d
       0.017210778 -0.27418575 -0.06503123 0.07093623
0001c0 f7 9b e3 bd 99 d5 64 3d d8 98 03 3e 4c 86 6a be
       -0.11113732 0.055867765 0.12851274 -0.22902793
0001d0 94 d2 48 be 2e f9 4c 3e 90 d1 7f bd 4d 1d 40 3d
       -0.19611579 0.2001693 -0.062455714 0.046902943
0001e0 ed a8 17 bd 01 ce c3 be 93 72 2c 3d 12 b9 3d 3e
       -0.037026335 -0.38243106 0.042101454 0.1852763
0001f0 75 78 59 3d ce 01 50 3d 43 99 36 bd 17 93 3b be
       0.053093392 0.05078297 -0.044579756 -0.18317829
000200 46 bd 63 be 9b 42 41 be df 53 9e 3e 28 44 b5 3c
       -0.22240171 -0.18873064 0.30923364 0.022127226
000210 d8 e6 46 be 37 2d 6b be d6 74 c0 bd d8 39 f8 bd
       -0.19423997 -0.22966467 -0.09397285 -0.12120408
000220 aa 29 35 3e 19 d5 11 3e ee 95 5e bd 7e e5 81 be
       0.17691675 0.14241447 -0.054342203 -0.253704
000230 a7 66 8d be f4 6f cd bd 33 63 4a 3e d0 5a 84 3e
       -0.2761738 -0.10031119 0.19764404 0.25850534

conv1.0.bias f4 [16]
000000 88 09 9d be b9 23 a6 bd ae fc 98 3e 67 96 f0 bb
       -0.30671334 -0.08112282 0.2988028 -0.007342148
000010 c9 24 5a 3d c2 a6 fc bd 67 4e 63 bc f3 80 6f be
       0.053257737 -0.12336494 -0.013873673 -0.23389034
000020 a1 1a b2 bd d5 1f a2 bd 67 f6 fd bd 7f ff 22 be
       -0.08696485 -0.07916228 -0.12400513 -0.15917777
000030 06 d4 c5 3d 1a 3b 53 be d7 36 61 be 8e a1 f5 3d
       0.09659581 -0.20628014 -0.21993576 0.11993705

conv2.0.weight f4 [16, 16, 3, 3]
000000 5f fa 7c 3d 28 0d 99 bd 35 d8 22 bd 78 64 05 bb
       0.06176221 -0.074732125 -0.039756972 -0.0020354073
000010 79 51 24 3c a6 f8 05 bd 68 59 59 bd 66 af 2a 3c
       0.01002919 -0.032707833 -0.05306378 0.010417795
000020 b4 a4 1c be 6f 74 46 3d 3c ea 46 3d d7 c2 12 3d
       -0.15297204 0.048450883 0.048563227 0.035830345
000030 b1 1a 9d bc b3 b3 c9 bb 6c 4d 37 bd 29 87 4b bd
       -0.019177767 -0.006155455 -0.04475157 -0.049689446
000040 c9 75 b3 3c 2e 89 b1 bd d4 d8 a3 bd fa 01 ba bd
       0.02190675 -0.08668743 -0.08000341 -0.09082408
000050 f3 e8 da bc 3b 7b 9e 3c 0d b9 52 3d f4 ce 6d 3d
       -0.026722407 0.01934587 0.05144601 0.058058694
000060 57 85 13 bd 30 02 02 3d 5d 77 40 bd a9 f5 cd 3d
       -0.036015835 0.031740367 -0.046988834 0.100566216
000070 3e 8d 3e 3d f4 c6 e8 3c 71 77 46 bc 08 a1 7f 3d
       0.046521418 0.02841518 -0.012113438 0.06240943
000080 1a 24 e0 3c b0 6a cb bd ea 0c bc 3d d4 6a 36 bc
       0.027360965 -0.099324584 0.09182151 -0.011133868
000090 17 81 7f bd 4a 48 5e bd 28 7d 9c bd c1 4e e0 bd
       -0.06237897 -0.05426816 -0.07641059 -0.10952521
0000a0 c6 ae 94 bc d7 58 da 3c 3b 3e 5f be 05 ac 78 3d
       -0.018149745 0.02665369 -0.21801083 0.060710926
0000b0 f4 ce bc bd 72 8d 8c 3c 43 74 58 3d 2e 66 e9 bd
       -0.09219161 0.01715729 0.05284525 -0.11396442
0000c0 94 9a dd 3d b2 cf 04 3d df d7 f1 3d c8 b9 2c 3e
       0.10820499 0.032424636 0.11808752 0.16867745
0000d0 9b 55 e6 3b 87 0e ab bb a9 f9 11 3d 9e c0 a0 bd
       0.007029248 -0.0052202377 0.035638485 -0.07849239
0000e0 3c 00 ef bb 78 bc 1f bd b5 fe bb 3c ee e2 b3 3d
       -0.007293729 -0.038998097 0.022948602 0.08783518
0000f0 d2 b1 26 bd ec 68 51 bc e2 bf b6 3d 75 5c a3 bd
       -0.040696926 -0.012781363 0.089233175 -0.07976619
000100 f9 e5 71 3d 01 a2 b1 bd 11 a2 8d bd 96 e1 1c 3d
       0.05905721 -0.08673478 -0.06915677 0.038301073
000110 00 94 3a 3d ca 0e 05 3d 7d a9 d5 b9 62 a9 f5 3c
       0.0455513 0.032484807 -0.00040752804 0.029987995
000120 7d 92 91 bd 48 23 39 bd da 4f 63 bc 58 9c 3f bd
       -0.071080185 -0.045199662 -0.013874019 -0.04677996
000130 53 ea 51 bd 16 5b 9b bd ca 9d 6a 3d b7 cf 29 bd
       -0.05124886 -0.07585733 0.057279386 -0.041457858
000140 f3 1b 97 3d 30 b6 37 3d 63 d8 2b 3c 90 05 06 bc
       0.07378378 0.044851482 0.010488602 -0.008180037
000150 28 0d 00 3e 92 78 84 bc 2e 00 22 3d 40 9f 55 bd
       0.12505019 -0.016170774 0.039550953 -0.052153826
000160 39 09 36 3d 7f d4 f3 3b b4 f4 91 3d 6d a3 e8 3d
       0.04444239 0.007441103 0.071267515 0.11359296
000170 00 cb 69 3c 1a a2 7f bb 6f f0 27 3d 4c b0 83 3d
       0.01426959 -0.0039006532 0.04100078 0.0643011
000180 95 33 a9 3d 36 49 30 3b 0c 1c 0a bd f5 a1 38 3d
       0.082617916 0.0026899106 -0.033718154 0.04507633
000190 88 1d bf 3b f1 66 7d bd 90 8a 07 bd 00 48 91 3c
       0.005832378 -0.06186575 -0.033091128 0.017734528
0001a0 a8 a1 89 3d c8 77 97 3d 5d 0d c6 3c ce 72 2d bd
       0.067202866 0.07395893 0.024176294 -0.042345814
0001b0 63 a4 c7 bc 3b 55 53 3d 9f 5c 53 bd d0 2e 11 3e
       -0.024370378 0.051594954 -0.051602002 0.14178014
0001c0 ab 7e a1 bd 93 19 16 3d 41 57 14 3d 6f f6 c6 3c
       -0.07885488 0.036645483 0.036216024 0.02428743
0001d0 4f 9b 26 bc 52 7c c4 ba 61 38 06 3e 6b 2d 32 bd
       -0.010168864 -0.0014990664 0.13107444 -0.043500345
0001e0 02 63 f3 3b d5 df 0b 3d c6 2a c8 bd 73 21 7a 3d
       0.007427574 0.03414901 -0.097737834 0.061067056
0001f0 16 d8 1e 3d 5a ce dd bc f6 36 3a 3d 27 fb 51 bd
       0.038780294 -0.027075935 0.04546257 -0.05126491
000200 38 ea 34 bd 77 db ad bd 5d a9 3c bd 3c cd 3f 3c
       -0.04416868 -0.08489125 -0.046059955 0.0117066465
000210 cc 94 c5 3c 36 e3 25 bd b7 80 65 bd 9a 3a d5 bd
       0.024118803 -0.04049989 -0.056030955 -0.10411568
000220 dd f9 84 bd bf d0 9d 3d c4 cf 3b ba 97 73 ee bd
       -0.0649297 0.07705831 -0.00071644434 -0.11643141
000230 c1 92 4b 3d 0c 9b ce bd cd 46 70 bc 20 02 97 3d
       0.049700502 -0.100881666 -0.014665318 0.07373452
000240 f8 ea 9a bc 08 c5 fc bd a1 12 04 bd 90 99 7b bc
       -0.01891087 -0.12342268 -0.03224433 -0.015356436
000250 de a0 94 3d 5a ba d4 3c 56 07 77 bd a3 11 11 3d
       0.072572455 0.025967766 -0.06030973 0.03541721
000260 20 b2 a0 3d e1 b9 0c 3d 0e 70 a1 3d 90 50 c6 3a
       0.07846475 0.034356955 0.07882701 0.0015130211
000270 b7 ae 5f 3d 7e 5c 7e bd 8e d8 ac 3d 3f 66 29 3c
       0.05460998 -0.062099926 0.08439742 0.010339319
000280 c2 f3 a7 3d c1 9b 8f 3c d1 09 a1 3d dc 5d 65 bc
       0.0820079 0.017530324 0.078632005 -0.013999429
000290 6e 21 6e bd 6a 30 37 bc b5 d6 22 3d fa ef 3b bd
       -0.05813735 -0.011180976 0.03975554 -0.045883156
0002a0 79 a5 f1 3c a5 d6 95 3d 71 c7 9f 3d 81 2e 44 3d
       0.029497849 0.07316331 0.07801712 0.047895912
0002b0 7e 2b 58 bd 70 21 33 3d e6 7c 1c 3d aa 2a 5f 3d
       -0.052775852 0.04373306 0.03820505 0.054484047
0002c0 db a6 68 3d 84 c1 06 bc 34 2e 4a 3d 9e 70 37 3d
       0.05679975 -0.008224849 0.04936047 0.044785134
0002d0 41 18 8e bd 8c 10 a9 3c 9f fa 5f 3d 1a d2 14 3d
       -0.0693822 0.020637773 0.05468237 0.03633318
0002e0 b6 7e 94 3d 81 88 59 3d 7f c0 72 bd 44 88 18 bd
       0.07250731 0.053108696 -0.05926561 -0.037239328
0002f0 d8 ad 64 bd 1c cb d3 3d 0c 83 0b be d2 fe 2d 3d
       -0.055829853 0.103414744 -0.13624209 0.042479344
000300 e6 b0 b6 3d c2 29 00 3d 81 47 4f bd fc 66 10 3e
       0.089204594 0.031289823 -0.0506053 0.14101785
000310 15 80 e7 3d 59 89 1c 3d 62 de f9 bc 9a da a8 bd
       0.113037266 0.038216922 -0.030501548 -0.0824482
000320 4e 18 50 bd 8a c4 9e bd 5a da b7 3d 5d bf 3c 3d
       -0.05080443 -0.077523306 0.08977194 0.046080936
000330 39 f7 8d bc 2f cf 0c 3d e0 05 9c bd 6e df 88 bb
       -0.017329799 0.034377273 -0.07618308 -0.0041770255
000340 0a 72 92 3d b3 e7 ce 3c 39 e4 74 3d 85 5d 9e 3d
       0.071506575 0.025256967 0.059787963 0.07732681
000350 1e 01 ef 3b 97 50 51 3d d1 38 74 3d e0 27 36 3d
       0.0072938344 0.051102247 0.059624497 0.04447162
000360 20 8b 84 bd 3a 50 92 3d b1 55 41 3d 18 95 93 3c
       -0.064718485 0.07144208 0.047200862 0.01801543
000370 5f 2a 3a 3d 13 7d 53 3d 60 d8 30 bc 51 aa c2 bc
       0.045450564 0.051632952 -0.010793775 -0.023762854
000380 ce 9c 7d 3d 04 e9 5c bd 01 39 15 bd ad 1d 3a bd
       0.06191712 -0.05393316 -0.036431316 -0.045438457
000390 14 a4 9c 3d f6 6f 31 3d 2b 51 aa bd b6 34 0f bc
       0.07648483 0.043319665 -0.08316263 -0.008740595
0003a0 b9 fe 92 bd 3f 83 ab 3d 7a e9 ee bd 77 d9 0b be
       -0.07177491 0.083746426 -0.11665626 -0.13657175
0003b0 47 9c f7 bd ca f6 51 3d 85 a9 bd bc a0 4e 33 bd
       -0.120903544 0.051260747 -0.023152122 -0.043776155
0003c0 2d 32 dd bc 3c 14 97 bd 1d 8d db bc 5d 93 d9 3a
       -0.027001465 -0.07376906 -0.026800686 0.0016599704
0003d0 0e c7 83 3c e4 8c 0f 3d 8f d7 43 3c d2 44 35 3d
       0.016086128 0.035046473 0.011953249 0.044255085
0003e0 77 90 52 3c 9c 88 ea 3d 01 9c 29 3d 00 92 47 3d
       0.012851826 0.114518374 0.041408543 0.04872322
0003f0 60 99 22 3d d1 43 64 bd 74 43 5c 3c 2b af 52 3d
       0.03969705 -0.055728737 0.013443816 0.051436584

conv2.0.bias f4 [16]
000000 0e 94 37 3d d5 1d 54 3d bd a9 9c 3c aa c0 c5 3c
       0.04481893 0.051786263 0.019123906 0.024139721
000010 54 a6 1f bc 9b 07 ab 3c 6d 69 21 3d 43 08 6d bd
       -0.009744246 0.02087765 0.039407182 -0.057869207
000020 f3 8e 60 bd f7 dc 38 bd 04 c8 e6 3c 38 a9 4c bd
       -0.054823827 -0.045132603 0.028171547 -0.049966067
000030 47 0c e8 bc f2 3f 2a 3c 06 16 e9 3c 81 dc 1d 3b
       -0.028326167 0.010391222 0.028452884 0.002408773

conv2.1.weight f4 [16]
000000 36 7c 79 3f ba 4a 59 3f b0 86 83 3f 1d 2d 81 3f
       0.97455156 0.8487965 1.0275478 1.0091892
000010 ad 5d 86 3f 22 03 64 3f c2 52 82 3f e5 54 7f 3f
       1.0497338 0.8906728 1.0181506 0.99738914
000020 b6 1c 83 3f c4 84 8c 3f 96 b7 83 3f d4 9e 7f 3f
       1.0243137 1.0978017 1.0290401 0.9985173
000030 de 88 81 3f 53 69 82 3f db 76 87 3f f3 b2 83 3f
       1.0119894 1.0188392 1.0583147 1.0288986

conv2.1.bias f4 [16]
000000 ee 6c 9f bd 02 f5 28 be c1 2e f2 bd e3 67 12 be
       -0.077844486 -0.16499713 -0.11825324 -0.14297442
000010 77 3f 31 be 13 54 b1 bd ac 4e 3a be 28 34 87 bd
       -0.17309366 -0.08658614 -0.18194073 -0.06601745
000020 f0 f5 33 be 04 a8 eb bd c5 4c 4f be a0 39 02 be
       -0.17574286 -0.11506656 -0.20244129 -0.12717295
000030 44 21 92 bd 59 58 7c bd 58 cf 14 be 91 38 9f bc
       -0.07135251 -0.061607692 -0.1453222 -0.019436153

conv2.1.running_mean f4 [16]
000000 64 35 3f bd ea fa 91 3e 4a 0f 9b bd 9b b2 99 bd
       -0.046681777 0.28511745 -0.075712755 -0.075047694
000010 0a 95 03 bd 12 2f 62 bd 2f f8 e0 bd 16 87 bc be
       -0.032124557 -0.05522067 -0.10984837 -0.36821812
000020 8d 66 3b be bd 65 31 bd b3 3c 66 3d 2f 05 3a be
       -0.18300839 -0.043309916 0.05621023 -0.1816604
000030 a2 22 c3 bd 90 07 8b 3c 4b ed 04 be 8d be 26 bd
       -0.0952809 0.01697138 -0.12981145 -0.040709067

conv2.1.running_var f4 [16]
000000 20 99 a7 3c 21 43 3d 3d 52 2d ab 3c 25 1f 90 3c
       0.020458758 0.046206597 0.020895634 0.017592976
000010 a1 a2 ff 3c c5 d9 f5 3c ec 4a 00 3d bc 1e 68 3c
       0.031205477 0.030011067 0.03132145 0.014167484
000020 dd b9 cd 3c 1f 5d d4 3c a3 44 00 3d 17 05 c0 3c
       0.02511304 0.02592331 0.031315457 0.023439927
000030 24 3b b8 3c 46 62 57 3d 1d 4d e9 3c a9 c0 4c 3d
       0.022489138 0.052583955 0.028479153 0.049988423

conv3.0.weight f4 [32, 16, 5, 5]
000000 0c 40 20 3d 82 02 fa 3c d2 66 88 3d 60 8b ea bc
       0.03912358 0.030518774 0.066602364 -0.028630912
000010 a9 82 d2 bc 41 51 75 3b 0c 5b 77 3d 3e 13 ec 3c
       -0.02569707 0.0037432464 0.060389563 0.02881777
000020 b9 da ee bc 36 c7 05 3d 4b 5c 43 3b 3f fb 74 bb
       -0.02915703 0.032660685 0.002980965 -0.00373812
000030 1a 97 8d bb d2 8d be 3b e8 30 80 3d e5 03 b4 bc
       -0.004320991 0.005815246 0.06259328 -0.021974513
000040 31 d6 8e ba 20 77 43 bc 73 91 43 bd 15 29 5d 3c
       -0.0010897574 -0.011930257 -0.047746133 0.013498564
000050 72 00 82 bd fc af 78 bc 22 b3 5e bc f2 a9 e4 3b
       -0.06347741 -0.015178677 -0.013592513 0.006978267
000060 72 70 2b bd c9 8b 8a bc 53 9b c5 3c 0a 5e 8b 3d
       -0.041855283 -0.016912358 0.024121916 0.06805046
000070 57 cd d0 3c ba af a3 b9 c3 1a 23 3c e5 97 ec 3b
       0.025488539 -0.0003122071 0.009955111 0.0072202557
000080 24 40 4e 3c 82 20 eb bb 36 9c 42 bd 82 bb c4 bc
       0.0125885345 -0.007175506 -0.047512256 -0.024015192
000090 e5 7e b9 bc c0 82 13 3d 75 0c 35 3c c0 8b 98 bc
       -0.022643516 0.036013365 0.011050333 -0.018621325
0000a0 a2 55 87 bc ad c6 cb bc 40 96 67 3d 64 23 06 bc
       -0.016520325 -0.02487501 0.056539774 -0.008187149
0000b0 10 c3 4e bc aa ac 2e bd 09 b5 19 bc 88 9e 45 3c
       -0.012619749 -0.042645134 -0.009381541 0.012061723
0000c0 bd 1a 79 3c fc b2 97 bb 97 1d 0a bd e2 43 46 3d
       0.015204129 -0.004629491 -0.033719625 0.04840458
0000d0 ef a1 17 bd 43 c3 4c bd d9 5b 93 bd 52 e2 82 3d
       -0.037019666 -0.049990904 -0.07195253 0.063908234
0000e0 14 49 c8 bb 2f 43 09 bd d9 5e 57 bd a4 b1 ce bc
       -0.006112227 -0.033511337 -0.05258069 -0.02523119
0000f0 b0 ec 4d 3d f1 a1 ea 3c 3a 58 a6 bd b3 04 9d 3c
       0.05027455 0.028641673 -0.08122297 0.01916728
000100 3a 97 52 3d 71 2c 90 3d 3c 31 57 3d 77 1b 7b 3d
       0.051413752 0.070397265 0.052537188 0.06130549
000110 5f 78 df 3c 02 b6 93 3c 80 6b 0e bd 21 17 84 bc
       0.027279077 0.018031124 -0.03477049 -0.01612431
000120 af ea c8 ba 3f 0d e3 3c 48 8c f0 bc 4f f7 25 bd
       -0.001532873 0.027716277 -0.029363766 -0.040519055
000130 74 3e af 3b 61 60 93 bc ba 3a 31 bd 0d 4a e6 3c
       0.005348021 -0.017990293 -0.043268897 0.028111482
000140 fe 81 55 3a 02 0f 81 ba a7 f6 62 3c 94 1a c8 bc
       0.00081446755 -0.0009846392 0.013852752 -0.024426736
000150 59 f0 c8 bc a2 49 60 3b f9 66 b2 3c b9 7d 06 3d
       -0.02452867 0.0034223576 0.021777617 0.032834742
000160 4c 24 21 3d 9b d7 9b bc 7c 08 bd bb 87 08 3b 3d
       0.039341256 -0.019023707 -0.0057688337 0.04566243
000170 5a cc 1e 3d c6 d3 90 bb 3d 34 4f 3d 2c 5d 04 3d
       0.038769104 -0.0044197766 0.050586928 0.032315418
000180 a8 4f b3 3b a9 bb a3 bc 4d 53 7e bd 15 6d 9e bc
       0.0054721422 -0.019986944 -0.06209116 -0.019339124
000190 29 42 8a 3c b9 9c d4 3b 56 d7 5e 3c 60 a1 23 bd
       0.01687725 0.0064884094 0.013601145 -0.03994882
0001a0 c4 d4 78 bb 55 e9 4f 3d 8a 4f 70 3d 74 42 40 3d
       -0.0037968615 0.050759632 0.058669604 0.046938375
0001b0 6a eb f9 bc d3 47 88 bc 58 f8 05 bd dc 0b 67 3d
       -0.030507762 -0.016635811 -0.032707542 0.056407794
0001c0 d6 5e 25 bd ea 17 31 bb 09 21 ee 3c 59 b7 59 bb
       -0.040373646 -0.002702231 0.029068487 -0.0033220856
0001d0 40 45 b4 3c f8 9c 54 3c 0d 35 31 bb e7 26 06 bc
       0.022005677 0.012976877 -0.0027039677 -0.008187986
0001e0 b3 74 54 3d b1 f1 b6 bb 5e 1e b4 bd 9d 2e 58 bd
       0.051869106 -0.005583011 -0.087948546 -0.05277883
0001f0 47 67 50 3d a7 cc 68 bd 12 f0 74 bd c2 4e 9c 3d
       0.050879743 -0.056835797 -0.05979926 0.07632209
000200 7a c6 5a 3c c7 38 43 bb ce ec dc 3b 42 23 1c bd
       0.013352985 -0.002978848 0.0067420965 -0.038119562
000210 60 e4 50 3d f3 4f bc 3b f0 08 9d bc 78 36 92 bc
       0.050999045 0.0057468354 -0.0191693 -0.017848238
000220 e0 d3 2c bd 0a b8 c1 3c 3e b4 5f 3d 6e 27 24 bd
       -0.042194247 0.023647327 0.05461525 -0.040076666
000230 ea e9 35 bd 06 06 02 3d 7c 26 35 bc ad 31 e3 3c
       -0.04441253 0.031744026 -0.011056539 0.027733648
000240 7e 3d de 3c 39 66 3b 3d 77 cf 8d 3c 78 96 06 3c
       0.027128931 0.045751784 0.017310841 0.0082145855
000250 b5 65 72 3d 87 f7 da 3b 02 f8 9b bc ad 84 66 3b
       0.059179027 0.0066823396 -0.019039158 0.0035174296
000260 8a b8 8b bd 33 60 f3 bb 78 83 c0 bc d4 2c 34 bd
       -0.068223074 -0.0074272393 -0.02350019 -0.043988064
000270 08 3f 98 bd e6 80 39 bd b1 9c 27 3d 0c 9e 21 3c
       -0.07433897 -0.045288943 0.040920917 0.0098643415
000280 ab 9f de bd 81 6b 9e bd af 6b c9 bc bf 90 dc 3c
       -0.10870298 -0.077353485 -0.02458748 0.026924489
000290 c4 1c 98 3d c2 ae 80 3c 8d 43 49 bc 66 b6 0d 3b
       0.074273616 0.015708331 -0.012284172 0.002162361
0002a0 34 35 70 3c f8 ca 2c 3d 18 a1 0b bc 15 46 a0 3d
       0.014661122 0.042185754 -0.008522294 0.07825867
0002b0 b7 77 ae bd 6f 00 08 bd 03 c0 46 3d d3 b3 3f 3c
       -0.085189275 -0.03320354 0.04852296 0.011700588
0002c0 53 6a 41 bd 10 5e 39 bc e2 43 44 3b d0 03 06 3b
       -0.04722054 -0.01131393 0.0029947688 0.002044905
0002d0 e7 fa 27 bb d8 4e 31 bd 3f a7 a4 3c 0b 6e 45 3d
       -0.0025631727 -0.043288082 0.02009928 0.04820065
0002e0 78 89 5b 3d 2e 3e 44 bd 6a 95 18 3d 2b f1 8b bc
       0.053597897 -0.04791086 0.037251867 -0.017082771
0002f0 6a 04 07 3d ed ad 9a 3c 75 e9 9c 3c 14 e8 61 bd
       0.032963194 0.018881762 0.01915429 -0.055152968
000300 f5 6b 87 3d b0 da de 3c 0b 2a 46 bd 4a fc ac bb
       0.06612388 0.027203888 -0.04837994 -0.0052790986
000310 d2 6c b5 bc 9c 13 96 3c d2 44 b0 3c 7e 4d cd 3c
       -0.022146616 0.018319897 0.021517191 0.025061365
000320 14 cb 60 bc bd f8 1d 3c 0b 84 a7 bd d4 4f a9 bc
       -0.013720293 0.009641823 -0.08179482 -0.020667948
000330 eb 58 53 bd fb 67 b2 3c 7d fd 1c bd 40 59 c0 bd
       -0.05159847 0.021778097 -0.038327683 -0.09392023
000340 8b 08 7b bd 68 f0 2f bd e4 84 45 3c bd 03 a1 bd
       -0.061287444 -0.04295388 0.012055609 -0.07862041
000350 b5 13 38 bd 5f 27 e1 3b d8 27 da bc 6f c3 85 bd
       -0.04494067 0.0068711485 -0.026630327 -0.065314166
000360 0a 21 a0 bd 6e ec e4 bc 79 39 6c bc 19 e6 c4 3c
       -0.07818802 -0.02794477 -0.014417999 0.0240355
000370 e6 88 c7 3c 71 3c b4 3a 3f 56 dc bc d9 39 d7 3b
       0.02435727 0.0013750923 -0.026896594 0.0065681753
000380 6f 48 68 3c 73 3b a1 bc 0c 50 3b bd 82 51 b5 bd
       0.014177426 -0.019681668 -0.045730636 -0.08853437
000390 19 d5 5c bd 1d e2 d1 3c 71 98 15 3d 8a 0e c1 3c
       -0.053914163 0.025620515 0.036522333 0.023566503
0003a0 e3 87 80 bd 33 73 4a bd 39 fa 1d 3d 63 80 2b bd
       -0.06275918 -0.04942627 0.03856871 -0.041870486
0003b0 d0 e2 fc bc e2 4b 44 3c 2d 94 6c bd 57 48 5a bc
       -0.030869871 0.0119809825 -0.0577585 -0.013322911
0003c0 63 2f 85 bd 86 5e 94 bc 65 82 7c bd 5b b1 88 3d
       -0.06503179 -0.018111479 -0.06164779 0.06674453
0003d0 90 0d 08 bd 2c 7c 85 bd 7d a1 a6 3c 2c 50 20 3b
       -0.03321606 -0.065178245 0.020340675 0.0024461849
0003e0 b2 60 88 3d 03 f3 62 3d e8 dd 4c bd 58 1c 0b 3d
       0.06659068 0.055407535 -0.050016314 0.033962578
0003f0 70 c5 74 bb 9d 51 88 bd b9 32 56 bd df 4d a5 bb
       -0.0037349127 -0.066561915 -0.052294467 -0.0050446833

conv3.0.bias f4 [32]
000000 93 74 9e bc 5a b1 31 bd ea 41 04 bd 85 28 9a 3b
       -0.019342696 -0.043382026 -0.032289423 0.0047045373
000010 30 cc cb 3c 67 6f b9 bc 23 25 ab ba 9a 45 72 bc
       0.024877638 -0.022636129 -0.0013057332 -0.014787102
000020 35 1b 03 3d e4 97 62 3c 7b ac b9 bc 6e d3 b7 3b
       0.03200837 0.013830159 -0.022665253 0.005609921
000030 eb d3 e4 bc fa 6e 0d bc 5c 7e 1e bd 5a ce b4 3c
       -0.027933082 -0.008632416 -0.038694724 0.022071052
000040 94 2e 32 bd cb 4e 3e bd c3 14 0e bd e4 60 f5 3c
       -0.04350145 -0.04646186 -0.03468777 0.029953428
000050 c4 8d ff 3c d3 eb d9 bc 8a 70 0c bd b2 14 63 bc
       0.031195529 -0.026601708 -0.034287013 -0.013859915
000060 b3 cc 51 3c 70 76 d6 3c 9d 54 df bc be e4 1f bd
       0.012805152 0.026179522 -0.027262026 -0.039036505
000070 a6 08 3e bd 73 bb 94 bc fc c3 70 3b df 51 05 bd
       -0.046394967 -0.018155789 0.003673791 -0.03254878

conv3.1.weight f4 [32]
000000 9f 5a 9c 3f c8 c4 a5 3f b1 32 a1 3f 15 29 9f 3f
       1.2215155 1.2950678 1.2593595 1.2434412
000010 db 98 a7 3f 88 6d a5 3f 92 63 be 3f 9e 06 a6 3f
       1.3093523 1.2924051 1.4874136 1.297077
000020 f3 77 a3 3f 6d f1 a6 3f 3a 08 a6 3f 01 87 9b 3f
       1.2770981 1.3042427 1.297126 1.2150575
000030 4c 83 a1 3f 67 3d 9e 3f ac 62 a9 3f e5 78 a2 3f
       1.2618194 1.2362489 1.3233237 1.2693144
000040 04 86 b0 3f c0 7d a5 3f 11 6e a4 3f f1 28 9e 3f
       1.3790898 1.2929001 1.284609 1.2356244
000050 29 58 b8 3f 26 06 a4 3f 4d da ac 3f 81 8f a0 3f
       1.4401904 1.2814376 1.350412 1.2543794
000060 6f 3a a9 3f 01 c3 ad 3f e0 94 9e 3f 9c 69 98 3f
       1.3220958 1.3575135 1.2389183 1.190723
000070 15 d0 9e 3f a0 04 a0 3f 9e c4 a4 3f 60 f5 a0 3f
       1.2407252 1.2501411 1.2872503 1.2574883

conv3.1.bias f4 [32]
000000 a4 77 bf 3c 1b ce 2f 3c 68 3e 35 3c 91 0b 3f 3d
       0.023372479 0.010730292 0.011062242 0.04664189
000010 9e c0 3f 3c 3a 24 5a 3c c3 43 eb bb 16 f1 94 3c
       0.011703638 0.013314301 -0.0071797087 0.018181365
000020 32 bf 98 39 40 e8 99 3c 44 e9 c7 3c 50 50 59 3c
       0.0002913415 0.018787503 0.024403222 0.013263777
000030 2f 5d 29 bc fe c4 d9 3b de 68 7b bc 74 95 40 3b
       -0.010337158 0.0066457978 -0.0153448265 0.0029385956
000040 54 7b 53 3d 22 f7 69 3d 10 70 16 3c 4f 2a 3e bb
       0.051631287 0.05712045 0.009181991 -0.0029016917
000050 2a 88 60 bb c3 6d 1b bd 11 f8 b5 3c 07 40 59 3c
       -0.0034260848 -0.037946474 0.022213014 0.013259894
000060 6e a3 44 3d ff 89 23 3d a1 ea 63 3c 08 cd c0 3c
       0.04800742 0.039926525 0.01391092 0.023535267
000070 7c 3b 5b 3d 38 57 8b 3c e3 5c 60 3d 5f c7 e6 bb
       0.053523526 0.017009363 0.054776084 -0.00704281

conv3.1.running_mean f4 [32]
000000 b0 e8 53 be f2 59 f3 3d 61 a2 b5 3e f6 af dd 3e
       -0.20694232 0.1188239 0.35475448 0.4329831
000010 1b 77 8a be 68 eb 43 be 71 03 9f 3e c5 1f 8f 3e
       -0.27043995 -0.19132769 0.31057313 0.27953926
000020 1a 5a 27 3e fa 92 8f 3e ec 38 ac 3e 2f 60 34 bc
       0.16342965 0.28041822 0.33637178 -0.01100926
000030 e6 27 4f be cb 88 18 3d 85 7b 82 3e 6b 3f 52 3d
       -0.20230064 0.03723983 0.25484863 0.05133001
000040 d1 11 09 3e 31 7d 79 be ba 2e d6 3e 2e 66 12 be
       0.13385703 -0.24364163 0.41832525 -0.14296791
000050 06 59 ac 3e 16 f4 42 be 1e a8 0c 3e 2d a8 90 3e
       0.3366167 -0.19038424 0.13736007 0.28253308
000060 cc 7c 09 3f d1 06 83 3c 86 d5 ee bb 84 e2 40 3d
       0.5370605 0.015994461 -0.0072886376 0.047091022
000070 0a 07 8e 3e 7a c8 6a 3d 99 02 70 3d 08 11 ae bd
       0.27739745 0.057320096 0.058596227 -0.08499342

conv3.1.running_var f4 [32]
000000 73 1b be 3e 20 6e d8 3e 30 78 e0 3e 71 db bf 3e
       0.37130317 0.4227152 0.43841696 0.37472108
000010 a3 bf a8 3e 37 22 d5 3e 9e 61 d2 3e 4e a3 d8 3e
       0.32958707 0.41627666 0.410901 0.42312092
000020 98 42 aa 3e 0c af ca 3e 31 38 c5 3e 0e ba 9a 3e
       0.33253932 0.39586675 0.38519433 0.30220073
000030 a8 d4 c3 3e fc 88 bd 3e f9 ff c8 3e f0 97 a9 3e
       0.3824818 0.37018573 0.39257792 0.33123732
000040 6f dd bf 3e c2 0e f4 3e 54 a0 c4 3e 45 0f f4 3e
       0.37473628 0.4766751 0.3840357 0.476679
000050 8e 1e eb 3e 2c a9 ad 3e 3f 1d a5 3e 01 d7 d1 3e
       0.4592175 0.3391813 0.32248875 0.40984347
000060 02 a4 ba 3e c4 6a a9 3e 38 62 f7 3e c6 8c 9b 3e
       0.36453253 0.33089268 0.48317122 0.3038084
000070 52 83 dd 3e 35 dd a8 3e 6d f3 c9 3e e1 dc 8d 3e
       0.43264252 0.32981268 0.39443532 0.2770758

out.1.weight f4 [10, 1568]
000000 6e 44 40 bc dd 0e 80 bc 9c 05 f7 3b ee 79 c2 bc
       -0.011735065 -0.015632087 0.0075385105 -0.023739781
000010 7c 0d ac 3b ec 7c 06 bd 5b 15 8e 3c 40 86 43 bc
       0.005250631 -0.03283398 0.017344167 -0.011933863
000020 96 69 4e bc 6c 54 a2 bc 06 b9 ed 3c fa ea b0 3c
       -0.012598416 -0.019815646 0.02901889 0.02159642
000030 8a ce 89 3c f5 72 48 3a 26 f0 bf bc 5d 2e e5 bc
       0.016822118 0.00076465245 -0.023429941 -0.02797621
000040 ae 85 73 bb 9a ce 09 ba 7d 20 37 3d 40 01 7b 3d
       -0.0037158537 -0.0005256921 0.044708718 0.06128049
000050 fa a8 15 3b ff 95 b8 bc b1 98 0c 3d 88 80 09 3d
       0.0022836314 -0.022532461 0.034325305 0.033569843
000060 28 3d 7a bd cb 02 d5 3c 09 73 82 3d a6 ea b7 3b
       -0.06109348 0.026002308 0.063695975 0.005612689
000070 cd be 4c 3c 27 32 44 3d fe e0 7a 3d 96 d3 a0 bd
       0.012496662 0.04789939 0.061249726 -0.07852857
000080 bb 48 3c 3d 44 6a 4b 3b 50 6c 51 3b 25 47 9c 3c
       0.0459678 0.003103868 0.0031955428 0.019076893
000090 2b 3a cc 3c d4 4a f1 3c 14 93 24 bd 9a 42 42 3c
       0.02493008 0.029454626 -0.040179327 0.011856699
0000a0 bb 53 f5 3b 6c 82 e9 3b 30 6c 88 bb 03 83 a4 bb
       0.007486788 0.007126143 -0.0041632876 -0.0050205006
0000b0 58 06 b4 bd 30 37 18 be de cf e3 bd d4 44 77 bb
       -0.087902725 -0.14864802 -0.11123632 -0.0037730234
0000c0 52 50 2f 3d fc 80 ce 3c ee 1a a3 bc 89 0e 55 bd
       0.04280121 0.025207989 -0.019910302 -0.052015815
0000d0 ea 40 ce 3c 87 67 34 3c db 7d 01 3d ae 78 60 3c
       0.025177438 0.011011011 0.031614166 0.013700647
0000e0 f9 68 8a 3b 16 5f 52 bd 5a ba 82 ba e2 32 30 bc
       0.0042239395 -0.051360212 -0.000997375 -0.010754319
0000f0 3c e0 3e 3d dc 1c fa 3c dc d9 5d 3c 65 9f 9a bd
       0.046600565 0.03053134 0.013540711 -0.07549933
000100 62 bb 58 bd 38 cb f7 3c 8a ee 38 3c 85 6b 89 3d
       -0.052913077 0.03024827 0.011287341 0.06709961
000110 ad c4 52 3d 84 31 a0 3c b0 90 78 bd 91 1c 0b bd
       0.051457096 0.01955486 -0.06068486 -0.03396279
000120 d5 77 29 bc 1e f8 91 3c 7e a9 1a bd fe 7d be bb
       -0.010343512 0.017818507 -0.037759297 -0.0058133593
000130 1f 67 82 3c f2 b9 a2 bd d0 46 a8 bd 73 be 0a 3d
       0.015918313 -0.079456225 -0.082166314 0.033873033
000140 41 44 de 3c 43 72 83 bc a0 b1 57 bc ce 64 be 3c
       0.027132155 -0.016045695 -0.013164908 0.023241427
000150 6f c2 80 3d a6 d2 64 bd bc 6c b4 3b 49 39 0c 3c
       0.06287085 -0.055864953 0.005506126 0.00855858
000160 11 76 40 bd b2 7a c3 bc 9d 2b c5 3c 09 fc 80 3c
       -0.046987597 -0.023862217 0.024068648 0.01574518
000170 c8 bf 88 3c f6 58 bb 3d 6b d8 d1 3b 46 b6 a2 bc
       0.01669301 0.09147827 0.006403973 -0.019862305
000180 c2 b4 ae bb 73 eb c4 3c 40 c0 a2 bc 28 34 47 bb
       -0.0053316066 0.024038052 -0.019867063 -0.0030396078
000190 a2 93 75 bd 15 1d 22 3d d8 b8 05 bc 5b 1d 2e ba
       -0.059955247 0.039578516 -0.008161746 -0.00066419475
0001a0 2a 89 44 bd 9b 0c 8d bd b6 97 46 bc 46 13 61 bd
       -0.047982372 -0.0688717 -0.012121132 -0.05495002
0001b0 7c f1 ad bc 86 15 a9 bd 01 07 2c bd 8e f2 b8 bc
       -0.021233313 -0.082560584 -0.041998867 -0.022576597
0001c0 35 81 a0 bb 27 3a 09 bd 39 9c 72 bd 05 33 b4 bc
       -0.004898215 -0.033502724 -0.059231017 -0.021996984
0001d0 c6 7d 5e bd 2f 08 b3 bd 9b 9a 35 bc 03 ce 5f 3c
       -0.054319166 -0.08741795 -0.011084224 0.013659957
0001e0 ac f0 a2 ba 42 f8 51 bd 91 85 b7 3c 55 e5 23 3c
       -0.0012431345 -0.051262148 0.022402557 0.0100034075
0001f0 39 3c 55 bd b4 95 13 3c 4f 81 9b 3b e7 87 49 3c
       -0.052059386 0.00900786 0.0047456394 0.012300468
000200 a4 a4 c1 bd d6 19 49 3d e3 6c 7e b9 61 83 05 3d
       -0.09455231 0.049096905 -0.00024263891 0.032595996
000210 4c 5b 98 3b ca 59 12 bd af 04 e6 bb a3 96 32 bc
       0.0046495553 -0.03573016 -0.0070196013 -0.010900172
000220 99 11 84 bb c4 0d b4 3c bf 13 8c bc e7 2a 0a bd
       -0.004030418 0.02197922 -0.01709926 -0.03373232
000230 16 72 32 bd ed c3 0b bd 50 85 0b bd 7b 44 ab bc
       -0.043565832 -0.034122396 -0.034062684 -0.020906677
000240 43 d8 c0 bc b9 67 64 bc df 12 4d bd c1 00 7f 3c
       -0.023540622 -0.013940745 -0.050066825 0.015564145
000250 be 7d 78 3c 43 54 bf 3c 49 0c 95 bc 1c a5 df bc
       0.015166698 0.023355609 -0.018194335 -0.02730041
000260 c5 87 ab 3b cc e1 58 bc 9a 29 3c 3c d1 a9 11 bd
       0.005234691 -0.013237428 0.011484528 -0.03556234
000270 8d 12 55 3c 59 04 a1 bb d4 8f 3d bd ca ab 1f 3c
       0.013004911 -0.0049138484 -0.046279743 0.009745548
000280 14 79 18 bd a9 1f 1f bd 3c 97 1e 3c 96 e9 aa ba
       -0.037224844 -0.038848553 0.009679612 -0.0013039585
000290 08 2e bf 3c e9 62 48 bc d5 c1 33 bd 46 bf b5 bb
       0.02333738 -0.012230613 -0.043886025 -0.005546483
0002a0 ca 27 77 3c 78 21 ec 3c 94 27 05 3d dc 4f 15 bd
       0.01508517 0.028824553 0.032508448 -0.036453113
0002b0 b7 a8 67 bd 8e 95 0f bd de 8b 9b 3a 1d 1f 9c 3c
       -0.056557383 -0.035054736 0.0011867245 0.019057805
0002c0 c9 cf 1b 3b b0 4a 45 bd f1 27 83 3c c8 40 07 3d
       0.0023774973 -0.04816693 0.016010256 0.033020765
0002d0 87 1a ad 3c f6 23 90 bd 3f 33 ca bc 32 8b 2a bd
       0.021130813 -0.07038109 -0.02468264 -0.041636653
0002e0 17 34 2e bb 49 22 80 3b 2a 87 8d 3d 1c 1d 3e 3d
       -0.002658134 0.003910337 0.06910546 0.04641448
0002f0 fd 32 9e bd ce 4d 66 3d e0 8e af bc 33 86 ae bd
       -0.07724569 0.056226544 -0.021430433 -0.0852169
000300 29 85 1f be d3 40 6c bd 60 7d 76 bd 62 d4 45 3c
       -0.1557814 -0.05767901 -0.06017816 0.012074562
000310 6e 81 b5 bc 18 fb b3 bc 83 42 74 bc 97 ab 90 3c
       -0.022156443 -0.021970317 -0.014908436 0.017659945
000320 78 68 5b 3d 86 d8 60 bc 7a d5 dc 3c 5c d5 b2 bc
       0.053566426 -0.013723498 0.026957262 -0.021830253
000330 c3 b3 d6 3c 87 43 60 3c ff f0 30 3c f2 51 a8 3d
       0.026208764 0.013687975 0.010799645 0.08218755
000340 c4 60 4a 3d 4e e5 25 bd 46 e5 29 3d 60 f7 8b bc
       0.04940869 -0.040501885 0.041478418 -0.017085731
000350 ef 94 52 3b 88 3b 1d bb 90 16 0b 3d e1 7b 90 3d
       0.0032132228 -0.0023991782 0.033957064 0.07054878
000360 bb 89 87 3d 67 c3 06 bd fb d7 e7 3b 6b 26 2f 3d
       0.06618067 -0.032901194 0.0070753074 0.042761248
000370 b1 4c 15 bd 99 67 40 bd bc 10 3b 3c 2c 5d 05 3d
       -0.03645009 -0.0469738 0.011417564 0.03255956
000380 c6 d7 dc bc f0 ec 6c 3d a0 84 56 3d 9f 21 12 bd
       -0.026958358 0.05784315 0.052372575 -0.035676595
000390 db 86 75 bd 70 88 44 bc 88 6d 16 3d e0 64 94 bd
       -0.05994306 -0.01199542 0.03672555 -0.07245803
0003a0 10 ce 77 3d f9 12 8b 3d 03 9f 82 3d 11 d0 1d bd
       0.06049925 0.06790728 0.06377985 -0.038528506
0003b0 93 25 03 3c a9 19 10 3c 00 b3 c2 3c d2 7d b5 bc
       0.008004564 0.00879518 0.023766994 -0.022154722
0003c0 91 62 46 bc 6c cc 09 3a 78 85 1f bc f9 24 82 3c
       -0.012108461 0.00052565965 -0.009736411 0.01588677
0003d0 25 b0 7d bb a5 9f 09 bd 6a fa 2b bd c7 ae 44 bd
       -0.0038709727 -0.033599515 -0.04198686 -0.048018243
0003e0 47 14 ee bc 8c 0b 66 bd ad 1a d8 bd e0 94 20 bc
       -0.029062403 -0.056163356 -0.10551963 -0.00980112
0003f0 f0 2a 50 3a f3 75 24 bd a7 81 23 bc 14 8b f2 3b
       0.00079409685 -0.040151548 -0.009979642 0.0074018333

out.1.bias f4 [10]
000000 a2 78 5c bc 82 7a 00 3d 65 d3 86 3c 46 66 ba bc
       -0.0134564955 0.031366833 0.016458223 -0.022753846
000010 24 66 e9 bb 88 bf 8e bc 7b 12 bc bb 57 89 01 3c
       -0.007122772 -0.017425314 -0.0057395077 0.0079062795
000020 03 ea 2a bc e1 8b f8 bb
       -0.010431769 -0.0075850342
